docs&tests&data_sets/tests/logs/self_model.npz (npz, 139694 bytes, 8 tensors)

W1 f4 [128, 133]
000000 a5 62 6a bd b9 c5 53 bd 0b 93 cc bb 94 a7 82 3d
       -0.05722298 -0.051702235 -0.006243115 0.06379619
000010 ec 8b 8d 3d 7b bf d2 3b 34 b2 ac bd c2 cc bb bc
       0.069114536 0.0064315177 -0.08432427 -0.022924785
000020 ba 40 37 bd 39 e9 cd bc 0b f0 14 bd 66 50 fc bc
       -0.044739462 -0.025135623 -0.036361735 -0.030800056
000030 df 85 6d bd d9 cd b1 ba d4 eb 9e bd 5c 8b 82 3d
       -0.057988998 -0.0013565376 -0.077598244 0.06374237
000040 29 ee f3 bb 06 c1 33 3c d5 b3 3e bd ff 44 8f 3c
       -0.0074441624 0.010971313 -0.04655822 0.017488955
000050 70 1e 2b bd 73 22 b1 bd 5a 14 84 bc d7 0d 69 3c
       -0.041777074 -0.08649149 -0.016122986 0.014224491
000060 e0 55 68 3d da b3 9a 3b 89 9c 69 bd 25 14 56 3b
       0.05672252 0.004721147 -0.05703405 0.0032665816
000070 7c 54 9e bd bf a8 8f 3d 50 ad 3d bd e7 c0 d0 3b
       -0.07730958 0.07014608 -0.04630786 0.006370652
000080 d0 b7 ae bb 9b e2 99 bd 96 79 cf bc af 4d 30 3d
       -0.0053319708 -0.07513925 -0.025326531 0.043042835
000090 56 c0 35 bd c2 8f 97 3d f9 cc 94 bd d9 16 8f bd
       -0.04437288 0.074004665 -0.07265658 -0.0698678
0000a0 b6 cb 12 3d 79 b9 1e bd 86 9e 14 3d fc de b0 3d
       0.035838805 -0.0387511 0.036283992 0.08636281
0000b0 70 b3 96 3d 4e ee bd 3c d2 df 88 3d 4b cf 11 bd
       0.07358444 0.023184922 0.06683315 -0.03559808
0000c0 ed 18 ae 3d 7f b4 29 bd f5 48 0a 3d de 1d 8a bd
       0.08500848 -0.0414319 0.033760983 -0.06743978
0000d0 97 df 53 3d 28 c4 0d bd 66 55 e6 3b 2d 40 a3 bd
       0.051726904 -0.034610897 0.0070292233 -0.07971225
0000e0 cd b0 ae 3d b3 b3 1c bc 62 a1 b2 3c ec 34 53 3d
       0.08529816 -0.009564328 0.021805469 0.051564142
0000f0 6a b1 5f 3d 9b 2c 65 bd dd bb 99 3d b1 17 15 3c
       0.054612555 -0.055950742 0.07506535 0.009099887
000100 9b 30 8b 3d 07 a1 0c 3d b4 25 37 bd 7e 9f 79 3d
       0.0679638 0.034333255 -0.04471369 0.06094312
000110 c1 a4 f4 3b 6b 9e e6 3c d9 1a 65 bd db 9f 64 bb
       0.0074659293 0.028151711 -0.055933807 -0.003488532
000120 08 3e b0 bd 3b 14 52 3c bf bd 90 bd d2 74 79 3a
       -0.086055815 0.012822206 -0.07067441 0.0009516004
000130 1f ab 95 3d 23 98 b6 3a ee fe 30 bd 15 8d 61 3d
       0.073080294 0.0013930838 -0.04321187 0.055066187
000140 8b c7 20 3d 0e 05 57 bd 66 dd 5b 3a 3f 7a d0 3c
       0.0392528 -0.052495055 0.0008387178 0.025448916
000150 c0 3d 2a 3c fc b6 0f 3d 22 fc 3f 3d be bc 2b bd
       0.010390699 0.035086617 0.046871312 -0.041928045
000160 0b 07 1c 3d e7 fc b3 3b 8e e4 a2 3d 05 fc 7a 3c
       0.038092654 0.005492795 0.079537496 0.015318875
000170 9d eb ea 3c ff 76 36 bd cc 80 4d bd 92 68 53 bd
       0.028676802 -0.044547077 -0.05017166 -0.051613398
000180 ee 46 a3 3d 3b b5 99 bc fc 31 a9 bd 59 65 63 3d
       0.07972513 -0.018763175 -0.08261487 0.055516575
000190 97 94 26 3c a7 f5 92 3d 2a 04 6b 3d e0 d2 30 bd
       0.0101672625 0.07175761 0.057377018 -0.043169856
0001a0 b7 8a 91 3d 04 b8 7e 3d e6 3c 31 3d 62 45 48 bc
       0.07106536 0.06218721 0.043270968 -0.012223573
0001b0 84 cd 87 bc c2 2e 8f bd 6f 9c 82 3d 65 17 ac 3d
       -0.01657749 -0.0699134 0.063774936 0.084029
0001c0 91 5d 54 bc c0 77 a9 3d f9 f6 36 3d 06 69 9b bd
       -0.012961761 0.082747936 0.044669125 -0.07588391
0001d0 30 eb 7c 3d ff a9 4c bd 6f bf 8f 3d 8a 0d 26 3d
       0.06174773 -0.04996681 0.07018935 0.040540256
0001e0 56 a5 36 bd 0b 9e 87 bd 00 79 32 3d 3b 6f 1e bb
       -0.04459127 -0.06621941 0.043572426 -0.0024175185
0001f0 03 26 f8 bc 68 c1 e3 3c 0f 28 a3 3d 28 99 a9 3d
       -0.030291563 0.027802184 0.07966625 0.08281165
000200 3a 2e 8f bd 9c c6 92 3d 82 28 96 3d 7e 53 46 bd
       -0.06991239 0.07166788 0.07331945 -0.048419468
000210 1e a1 94 3c a7 75 ff bc c2 f5 19 bd 2f 2f 08 3d
       0.018143233 -0.03118403 -0.03758789 0.033248123
000220 a6 19 45 bb f4 2e b1 bd 00 ed 36 3d 07 c8 18 3d
       -0.0030075102 -0.08651534 0.044659615 0.037300136
000230 18 f6 0d bd 7f 98 73 bd 0b 03 a8 3d 71 84 ed bc
       -0.03465852 -0.059471603 0.082037054 -0.028993817
000240 92 47 51 bb 28 1e 63 bd a0 d9 a0 bd 8b 1b 99 3c
       -0.0031933528 -0.05544868 -0.07854009 0.018689891
000250 dd 6b a7 3c 91 20 0f bd fd 00 2c bd 2d c1 bb 3b
       0.020437175 -0.034943167 -0.04199313 0.0057298155
000260 12 37 4f bd db 02 87 bc 18 14 8b 3d 7d 62 32 bd
       -0.05058963 -0.016480854 0.06790942 -0.043550957
000270 1a e8 52 3d a7 bb 20 3d bd 9d 18 3d 36 8a 8e 3d
       0.05149088 0.03924146 0.037259806 0.069599554
000280 06 ed 6c 3b d4 b3 35 bd a7 3f 18 bd 47 d9 cf 3c
       0.003615202 -0.04436095 -0.03717008 0.02537216
000290 ec df 21 bd 37 c8 89 3c 8c 1e 51 3d 07 1c 29 3c
       -0.03952019 0.016819103 0.051054522 0.010321624
0002a0 a3 9a a5 bc 22 8e 3d 3d 61 32 ed 3c 74 b0 96 bd
       -0.020215338 0.046278127 0.028954687 -0.073578745
0002b0 02 f4 21 3d 37 ab 1e 3b 8d ce 73 3d 48 df 90 bc
       0.039539345 0.0024210939 0.059523154 -0.017684594
0002c0 00 df 93 3d 25 9b e1 3c 6d 97 1d bd 82 e8 70 3c
       0.07220268 0.027539799 -0.03847449 0.014703872
0002d0 2d 7c 0f bd ea 40 ee bc 98 b1 8a 3d 0a f1 3c bd
       -0.035030533 -0.029083688 0.067721546 -0.04612831
0002e0 ce 56 9f bd bf ce 14 3d 49 5a 14 bd e2 f6 a5 3d
       -0.077802286 0.03632998 -0.036218915 0.0810373
0002f0 9c 18 0b bd 10 58 7f 3d 74 cd 5e bd f0 3d e0 3c
       -0.033959016 0.062339842 -0.054395154 0.027373284
000300 e8 a6 23 3d 5a 26 36 bd 06 57 80 bd 7f ca 9e 3d
       0.039954096 -0.04447017 -0.062665984 0.07753467
000310 e3 a5 04 bd a3 53 95 bd 22 fb 3f 3d 0e 9f cd 3c
       -0.032384764 -0.07291343 0.04687036 0.025100257
000320 06 56 4d 3d a4 48 e2 bc 14 2f 91 3d 06 41 76 bd
       0.050130866 -0.027622528 0.070890576 -0.060120605
000330 bf db 15 bd 8a ff 66 3d fb d6 81 bd ae 94 a2 3c
       -0.03658652 0.056396045 -0.063398324 0.019846287
000340 a3 5c 0c bd 7a 1d 85 3c 4c 10 d7 3c 56 0b 91 bd
       -0.034268033 0.016249407 0.026252888 -0.0708224
000350 23 aa f0 3c fe d3 53 3d 2d b9 be bc ac fd 20 bd
       0.029378003 0.051715843 -0.023281658 -0.03930442
000360 7c e2 a8 bd 15 b3 a1 3d 5b f5 8c 3c c2 96 29 3b
       -0.082463235 0.07895485 0.017206838 0.0025877212
000370 d3 24 ab bd c3 c1 4f bd 94 17 47 bd 5e b5 44 3d
       -0.08356633 -0.050721895 -0.04860647 0.048024528
000380 91 95 49 3d 43 db 7c 3d 63 6b 06 3c c9 22 fc bc
       0.049214903 0.06173254 0.008204314 -0.030778306
000390 b6 78 97 bd 14 f3 4b bc 89 29 14 bd f0 2b 13 3d
       -0.07396071 -0.012448091 -0.036172424 0.035930574
0003a0 51 d3 41 3d fb 37 8d bc 74 97 73 bd 3b 70 9b 3c
       0.047320668 -0.017238608 -0.05947061 0.018974414
0003b0 66 5f ee bc bc c6 29 3c d9 44 71 bd 29 bf 35 3d
       -0.029098224 0.010362323 -0.05890355 0.044371758
0003c0 10 90 27 bd 84 e9 91 bd a7 bb 5e bd 66 b0 d9 bc
       -0.040908873 -0.07124618 -0.054378178 -0.026573371
0003d0 07 8f 8c bd 97 8c 0a bd 36 da 00 3d a5 ba a5 3c
       -0.06863218 -0.033825483 0.031458102 0.0202306
0003e0 0b 37 f8 3c be 81 14 3d 92 99 8b 3d 34 7a e5 3a
       0.030299684 0.036256544 0.068164006 0.0017507733
0003f0 45 47 36 3d 60 a2 60 bc 22 dd 6d 3d 2e 27 e5 3c
       0.04450156 -0.013710588 0.058072217 0.027972784

b1 f4 [128]
000000 00 00 00 00 00 00 00 00 00 00 00 00 00 00 00 00
       0.0 0.0 0.0 0.0
000010 00 00 00 00 00 00 00 00 00 00 00 00 00 00 00 00
       0.0 0.0 0.0 0.0
000020 00 00 00 00 00 00 00 00 00 00 00 00 00 00 00 00
       0.0 0.0 0.0 0.0
000030 00 00 00 00 00 00 00 00 00 00 00 00 00 00 00 00
       0.0 0.0 0.0 0.0
000040 00 00 00 00 00 00 00 00 00 00 00 00 00 00 00 00
       0.0 0.0 0.0 0.0
000050 00 00 00 00 00 00 00 00 00 00 00 00 00 00 00 00
       0.0 0.0 0.0 0.0
000060 00 00 00 00 00 00 00 00 00 00 00 00 00 00 00 00
       0.0 0.0 0.0 0.0
000070 00 00 00 00 00 00 00 00 00 00 00 00 00 00 00 00
       0.0 0.0 0.0 0.0
000080 00 00 00 00 00 00 00 00 00 00 00 00 00 00 00 00
       0.0 0.0 0.0 0.0
000090 00 00 00 00 00 00 00 00 00 00 00 00 00 00 00 00
       0.0 0.0 0.0 0.0
0000a0 00 00 00 00 00 00 00 00 00 00 00 00 00 00 00 00
       0.0 0.0 0.0 0.0
0000b0 00 00 00 00 00 00 00 00 00 00 00 00 00 00 00 00
       0.0 0.0 0.0 0.0
0000c0 00 00 00 00 00 00 00 00 00 00 00 00 00 00 00 00
       0.0 0.0 0.0 0.0
0000d0 00 00 00 00 00 00 00 00 00 00 00 00 00 00 00 00
       0.0 0.0 0.0 0.0
0000e0 00 00 00 00 00 00 00 00 00 00 00 00 00 00 00 00
       0.0 0.0 0.0 0.0
0000f0 00 00 00 00 00 00 00 00 00 00 00 00 00 00 00 00
       0.0 0.0 0.0 0.0
000100 00 00 00 00 00 00 00 00 00 00 00 00 00 00 00 00
       0.0 0.0 0.0 0.0
000110 00 00 00 00 00 00 00 00 00 00 00 00 00 00 00 00
       0.0 0.0 0.0 0.0
000120 00 00 00 00 00 00 00 00 00 00 00 00 00 00 00 00
       0.0 0.0 0.0 0.0
000130 00 00 00 00 00 00 00 00 00 00 00 00 00 00 00 00
       0.0 0.0 0.0 0.0
000140 00 00 00 00 00 00 00 00 00 00 00 00 00 00 00 00
       0.0 0.0 0.0 0.0
000150 00 00 00 00 00 00 00 00 00 00 00 00 00 00 00 00
       0.0 0.0 0.0 0.0
000160 00 00 00 00 00 00 00 00 00 00 00 00 00 00 00 00
       0.0 0.0 0.0 0.0
000170 00 00 00 00 00 00 00 00 00 00 00 00 00 00 00 00
       0.0 0.0 0.0 0.0
000180 00 00 00 00 00 00 00 00 00 00 00 00 00 00 00 00
       0.0 0.0 0.0 0.0
000190 00 00 00 00 00 00 00 00 00 00 00 00 00 00 00 00
       0.0 0.0 0.0 0.0
0001a0 00 00 00 00 00 00 00 00 00 00 00 00 00 00 00 00
       0.0 0.0 0.0 0.0
0001b0 00 00 00 00 00 00 00 00 00 00 00 00 00 00 00 00
       0.0 0.0 0.0 0.0
0001c0 00 00 00 00 00 00 00 00 00 00 00 00 00 00 00 00
       0.0 0.0 0.0 0.0
0001d0 00 00 00 00 00 00 00 00 00 00 00 00 00 00 00 00
       0.0 0.0 0.0 0.0
0001e0 00 00 00 00 00 00 00 00 00 00 00 00 00 00 00 00
       0.0 0.0 0.0 0.0
0001f0 00 00 00 00 00 00 00 00 00 00 00 00 00 00 00 00
       0.0 0.0 0.0 0.0

Wo f4 [4, 128]
000000 1f 3e 8a 3c 6d fd 99 bd 7d 73 b0 bd 00 a2 9a 3d
       0.016875325 -0.0751904 -0.08615778 0.0755043
000010 cf 43 96 bd 09 8b 71 bd 11 fb b1 3d 09 00 0f bd
       -0.07337152 -0.058970485 0.08690465 -0.034912143
000020 3e d7 18 bc 7c 41 95 bd b6 64 1f 3d d5 af 8b 3d
       -0.0093286615 -0.07287881 0.038914405 0.06820647
000030 04 79 39 3d 84 d9 8e bc 38 c3 d6 3a be f4 95 bd
       0.045281425 -0.017437704 0.0016385084 -0.073220715
000040 05 5f a3 3d e6 e1 47 3d c4 fb 27 3d 63 8f 4d 3d
       0.07977108 0.048799418 0.041011587 0.050185572
000050 d3 06 60 3d e9 17 d0 3c da 54 9e bd 33 ec af 3b
       0.054694008 0.025402026 -0.07731028 0.0053687333
000060 dc 0c ca 3c fe 81 8d bc 5c 89 54 bd ff f4 a1 3d
       0.024664335 -0.0172739 -0.05188881 0.079080574
000070 d0 72 a9 bd 5e 21 08 bd 0e 85 b1 bd e7 e3 cc 3c
       -0.08273852 -0.033234946 -0.08667956 0.025011016
000080 5f ba 91 bd ee ca a7 bd 78 75 77 3d 71 22 9e 3d
       -0.071156256 -0.08193003 0.06041476 0.07721413
000090 75 e1 7d 3d 7f d3 82 3c ac 07 a7 bd 49 12 4c 3d
       0.06198259 0.01596999 -0.0815576 0.049822126
0000a0 49 89 11 3d d5 ce 74 bd f5 a7 2b 3d 1c 87 b3 bd
       0.035531316 -0.059767563 0.041908223 -0.087660044
0000b0 fa 0a 7d bd df 5a 13 3d 17 df a8 3d 7f e9 ab 3d
       -0.061778046 0.035975333 0.08245676 0.08394145
0000c0 87 fd ae 3d c1 a2 90 bb 5a d7 56 ba cc 64 85 bd
       0.0854445 -0.004413933 -0.0008195542 -0.06513366
0000d0 4d cf 97 bd 5e 0b c4 3c 8c 1f 31 bd 42 ce a9 bd
       -0.07412586 0.023931202 -0.043242976 -0.08291294
0000e0 de e3 21 bb 58 5b 15 bd ee 90 28 3d 1a 5b f0 bc
       -0.002470247 -0.036464065 0.04115384 -0.029340316
0000f0 51 89 5e bd f1 c0 f6 bc bb 51 2e bc b6 c1 f4 bc
       -0.054330174 -0.030121299 -0.010639603 -0.029877525
000100 66 6f 92 bb bd aa fb bc e3 43 9e 3d ab 09 9c bd
       -0.004468846 -0.030721063 0.07727792 -0.076190315
000110 a3 56 ac bc 16 a2 27 bd d5 74 df 3c d7 c1 02 3b
       -0.021037405 -0.04092606 0.02727739 0.0019951963
000120 12 a3 e5 3c 5b c1 6d bd 31 7a 42 3d 3f 53 2b bd
       0.02803186 -0.058045726 0.047479812 -0.041827437
000130 df db 17 3d 1b ef 85 b8 32 c4 2d bd c0 b6 94 3d
       0.03707492 -6.386471e-05 -0.042423435 0.07261419
000140 55 22 b2 bc b2 f2 5f 3d 03 8a 44 bb 50 38 03 3d
       -0.021744886 0.05467481 -0.0029989488 0.032036126
000150 6b 67 12 3d 31 a4 0a 3c dc 0c 81 bd 8c 17 ef bc
       0.03574316 0.008461998 -0.06301281 -0.029186033
000160 6a be 8f 3d 4c 53 b2 bd 0c 2d 24 3c 8a 9d 09 3d
       0.070187405 -0.08707294 0.010020506 0.033597507
000170 eb fc 4b bd 3a 14 85 bd 26 96 d0 3b 26 c7 05 bd
       -0.04980175 -0.064979985 0.0063655553 -0.032660626
000180 aa be 83 3d e7 2c 7f 3d 90 78 02 bc 69 41 4e 3d
       0.06432851 0.06229868 -0.007963315 0.05035535
000190 ef 9e a0 bd 41 13 29 bc fd be 81 bd 3e 77 96 3c
       -0.07842814 -0.010319532 -0.06335256 0.018367406
0001a0 a9 28 57 bd 4b 9f 8a 3d 47 d0 97 3c 82 a3 8c bd
       -0.05252901 0.06768664 0.018531932 -0.06867124
0001b0 e3 99 d0 3c 19 94 51 3d 8c 27 87 3b b5 30 9d 3d
       0.025464004 0.051166628 0.0041245874 0.07675306
0001c0 fe de 98 bd 64 9b 35 3b 8d 61 7a 3d ab 49 7a bd
       -0.074644074 0.0027711028 0.061128188 -0.06110541
0001d0 37 3e a3 bd 19 44 94 b8 f6 da 90 3d 9c 0a 89 bd
       -0.07970851 -7.069874e-05 0.070730135 -0.06691477
0001e0 ca c3 40 3d a7 75 01 bd 1a 96 bc 3c a8 4c 3b 3d
       0.04706172 -0.031606343 0.023020793 0.045727402
0001f0 09 b8 3f bd 20 f1 68 bc a6 16 98 bd 3d 5b ca 3c
       -0.04680637 -0.014217645 -0.07426195 0.024701709
000200 16 ac 89 bd 07 6d b2 3b 98 db 6b 3d d6 66 ad 3d
       -0.06722276 0.005445126 0.057582468 0.0846688
000210 91 61 3b 3d 24 74 0a 3c 21 8b 55 3d 44 99 8f bd
       0.045747343 0.008450542 0.052134637 -0.07011655
000220 9c ee 94 3c 5c 50 62 bd d8 9e 9a 3d 61 2c bd 3c
       0.018180184 -0.055252418 0.07549828 0.02309245
000230 9f 40 f5 3c b5 02 17 bd f8 03 ae 3d d8 ea 51 bd
       0.02993804 -0.036867816 0.08496851 -0.051249355
000240 fa a4 a8 3d fd 52 ad 3d f1 80 6b 3d bf c4 1a bd
       0.08234592 0.084630944 0.057496015 -0.037785288
000250 83 af 94 3d b0 05 2e bd a1 de 24 bc 3e 32 0c 3d
       0.07260039 -0.042485893 -0.0100628445 0.034227602
000260 fb 1f a9 3d 43 09 6e bd 94 17 1b bd 22 01 99 bd
       0.08258053 -0.0581143 -0.037864283 -0.07470919
000270 12 77 9b bd d6 f2 af bc 05 5f 69 bc a5 4e 18 bc
       -0.0759107 -0.021478098 -0.014243846 -0.009296094
000280 81 60 06 bd 49 18 b3 bd 34 42 0f bd 54 66 b1 38
       -0.032806877 -0.087448664 -0.034975246 8.459078e-05
000290 c5 f3 2f bd 8a 0e a5 bd 28 44 80 bd d3 d5 e6 3b
       -0.042957086 -0.08059414 -0.06263 0.007044533
0002a0 6a d2 c9 3c 6c 5c 5b bd 07 eb 86 3d 61 f6 32 3d
       0.024636466 -0.053554937 0.06587797 0.043691996
0002b0 56 97 8a 3c e8 67 8e bd 14 d4 a6 bc db cc 73 ba
       0.016917866 -0.06953412 -0.020364799 -0.000930024
0002c0 fc 07 5d bd 14 d5 3a 3c ab 40 02 3d c6 76 ad 3d
       -0.053962693 0.011403341 0.031799953 0.0846992
0002d0 24 be a9 3d 43 ef 86 3d f2 a7 f6 bb 70 c0 9a 3b
       0.082882196 0.06588604 -0.007527345 0.0047226474
0002e0 0c 0b ad bd f2 d9 81 3d ed 25 84 3d 07 80 f5 3c
       -0.08449373 0.06340398 0.06452546 0.029968275
0002f0 22 5d 89 3c 69 3e 9f 3d 0b 2c 21 3d 44 3e 9b 3d
       0.016768042 0.07775576 0.039348643 0.075802356
000300 0d 81 79 3d 4d bc 57 bc 45 ab 87 bd bf e3 54 bd
       0.060914088 -0.013167453 -0.06624464 -0.051975008
000310 b7 ad 99 bd f9 0b a7 3d 57 cb 95 3d 1c 9a 3b bd
       -0.075038366 0.081565805 0.073141746 -0.045801267
000320 ac ca 50 3d d3 92 89 bc de 53 96 bd 78 29 75 3d
       0.050974533 -0.016793644 -0.07340215 0.059854
000330 30 99 23 3d 01 b5 63 bd 81 00 df bc 80 c2 38 bd
       0.039941013 -0.05559254 -0.02722192 -0.045107365
000340 ae 1c 85 3c 14 b0 84 bb 67 c1 e2 3c 2f 08 72 bd
       0.016249027 -0.0040493105 0.027680112 -0.059089836
000350 df 7f e8 3c 78 d9 7d 3d 9a 6a 49 bd fa c3 5e 3d
       0.028381286 0.061974972 -0.04917393 0.054386117
000360 d6 b4 c2 3c 30 b3 ab bd d0 70 c7 3c c2 7a 9d 3b
       0.02376787 -0.08383787 0.024345785 0.0048058936
000370 d2 b1 23 bd 8d 1a af bd c8 bf 65 3d 57 f3 81 3b
       -0.039964505 -0.08549986 0.0560911 0.003965776
000380 8b 8f 3c bd 68 c7 cb bc c3 e1 54 bd 61 b8 9b bd
       -0.04603533 -0.024875358 -0.051973116 -0.07603527
000390 70 00 46 3d 31 b7 9f bd e8 91 85 bc 6c e4 76 3a
       0.04834026 -0.07798613 -0.016304925 0.0009418193
0003a0 ab 2a 3e 3d 4d 8e ad 3d 2e 10 4b bd f3 cd 88 bd
       0.04642741 0.08474407 -0.049575977 -0.06679907
0003b0 34 69 8a bd 2e 80 37 3d 5e 42 17 3d 83 e6 5b bd
       -0.06758347 0.044799976 0.036928527 -0.05368663
0003c0 82 38 95 3d 0f 43 6c 3c 12 c3 2c 3d 4a 0b 82 bd
       0.07286169 0.014420285 0.04217822 -0.063498095
0003d0 4b 1d a5 bd f9 d5 91 3d 51 1a 5e bd 7f 14 e4 bc
       -0.08062228 0.0712089 -0.054224316 -0.027841805
0003e0 ef 6c 78 3d 0c f4 11 bd ba f3 c8 bc 1f 55 44 bd
       0.060650762 -0.03563313 -0.02453028 -0.04793274
0003f0 52 70 10 bd 01 fb 08 bd 87 c0 a7 bd e2 de b0 3d
       -0.035263367 -0.0334425 -0.081910186 0.086362615

bo f4 [4]
000000 00 00 00 00 00 00 00 00 00 00 00 00 00 00 00 00
       0.0 0.0 0.0 0.0

Wz f4 [128, 128]
000000 77 dc 71 bd 18 42 2b 3d b3 32 9a bd 05 2e 18 3c
       -0.059048142 0.04181108 -0.07529201 0.009288316
000010 3e 87 95 3d b6 35 a6 3c 08 ff 45 bd 87 7f b4 bd
       0.07301186 0.020289283 -0.04833892 -0.088133864
000020 1f 48 6d bb a8 b6 59 3d 8d a7 23 3d b2 19 25 bd
       -0.0036206318 0.05315271 0.03995471 -0.040307708
000030 f3 03 83 3d b5 5f 98 bd 7c 18 a5 bd 0b cd 94 3d
       0.06397238 -0.0744013 -0.08061311 0.07265671
000040 10 f6 af bd 37 e2 8d bb 74 8f 9c 3d 47 46 9d 3c
       -0.085918546 -0.0043299454 0.07644549 0.01919855
000050 77 8f 09 bd 18 65 12 3d 26 96 56 bd 6e 2a 04 3d
       -0.033584084 0.03574094 -0.052389286 0.032267027
000060 61 56 60 3d ad 37 45 bc 7d cb 92 bd 75 42 8a 3c
       0.054769877 -0.0120372 -0.071677186 0.016877392
000070 5a 6a e3 bc a9 75 ab bd f9 72 7f bd 7a 2f 05 bd
       -0.027760673 -0.08372051 -0.062365506 -0.03251598
000080 93 f4 64 3d f0 15 03 3c 9d 4d 24 bc f8 d8 d7 3b
       0.055897307 0.008000836 -0.01002827 0.006587144
000090 cb ad c4 bc 60 33 9e bd b5 3d 88 3d b1 8e 9b 3d
       -0.024008652 -0.07724643 0.06652395 0.075955756
0000a0 c8 32 fe 3c 80 97 9d 3d 27 47 db bc c5 b1 3f 3d
       0.031030074 0.07694912 -0.026767327 0.046800394
0000b0 a5 5e ac 3c d5 6f 0d bd 9d b8 e4 3c 3d e1 7c bb
       0.021041224 -0.03453048 0.027920062 -0.00385864
0000c0 b8 0e c9 3c 63 a0 a1 3d 99 d4 c6 bc 60 cb bc bb
       0.024543151 0.078919195 -0.024271296 -0.005761549
0000d0 05 3a 7a 3c 54 10 58 bc 33 97 47 3c ee 75 5d bc
       0.015272622 -0.013187487 0.012182045 -0.013516886
0000e0 5d cb 01 3d bd 90 8a 3d 67 de 4c bd e9 a0 84 3d
       0.031688083 0.06765888 -0.050016787 0.06476004
0000f0 6f af f6 bc 6b 56 0b bd 3c 49 e1 bc b6 ab 7e 3d
       -0.03011295 -0.03401796 -0.027500741 0.062175475
000100 4f 89 87 3d fe 4e a4 bd ca 30 47 bd ff ff 9f bd
       0.066179864 -0.08022879 -0.048630513 -0.07812499
000110 0a 08 69 3d 51 a7 ea 3c 63 bd 84 bd 12 72 64 3d
       0.056892432 0.028644236 -0.06481435 0.05577285
000120 c2 42 d4 3c b9 bc 9b 3d 8b 29 bc ba 62 b3 93 3d
       0.025910739 0.07604355 -0.0014355642 0.07211949
000130 a8 e4 02 3d 39 be de bc 6f 22 aa 3d c0 f1 d9 bc
       0.031956345 -0.027190315 0.08307349 -0.026604533
000140 fa 7c ae 3d bf 9c 07 bd 78 ae 02 3d ed 90 0b bd
       0.08519931 -0.03310847 0.031904668 -0.03407376
000150 f2 a1 34 3d 96 00 dd bc a1 c9 f2 bb e1 9e 7c bd
       0.044099756 -0.026977818 -0.00740929 -0.061674956
000160 ed e7 91 3d de fb a7 3d 7d c9 51 3c 58 b5 a9 bd
       0.071243145 0.08202337 0.012804386 -0.08286542
000170 fc 92 68 bd a5 c5 88 bc f8 62 92 3c e4 22 b4 3d
       -0.0567808 -0.016695807 0.017869458 0.08795717
000180 7e fb ad bd 6a ae 04 bd e8 21 12 bd 68 c0 3b bd
       -0.08495234 -0.032392897 -0.035676867 -0.04583779
000190 52 b0 2d 3d 7a 61 40 bb 56 34 ac 3d c4 be fb b9
       0.04240448 -0.0029354976 0.0840842 -0.00048016582
0001a0 04 6d f6 bc 6a a9 17 bc c0 61 9a 3d 6b 3e ac bc
       -0.03008128 -0.0092567 0.075381756 -0.021025857
0001b0 35 88 52 bd 4a 0f 11 3d 88 fb 11 bc bd 5e 9f bd
       -0.05139943 0.03541497 -0.008910067 -0.07781742
0001c0 3a 46 d2 3b b7 45 aa bd c5 f2 0a ba 95 21 28 bd
       0.006417063 -0.08314078 -0.00053004577 -0.04104765
0001d0 a3 09 1b bd c3 13 e0 3c 29 3b 8b 3d 11 ff 12 3d
       -0.037850987 0.027353173 0.06798393 0.03588778
0001e0 cf aa 36 3c ee 28 4e bd 11 bf 8e bd 10 6c a2 3d
       0.011149122 -0.050332002 -0.06970037 0.079307675
0001f0 cd 12 cd ba f9 54 ec 3c 79 71 f8 bc 18 98 9a 3d
       -0.0015645862 0.028849112 -0.030327545 0.07548541
000200 69 2a 4d bd 4d c7 96 3d a4 2f 80 3d 7c df 9a 3d
       -0.050089274 0.07362232 0.06259087 0.075621575
000210 fb 96 90 ba 1d bf 96 3d 14 12 07 bd d4 8f 99 3c
       -0.0011031324 0.07360671 -0.032976225 0.01874534
000220 d8 3a 38 3d d3 93 7d 3d c3 3d 39 bb 42 4c c6 3c
       0.044977993 0.061908554 -0.0028265573 0.024206284
000230 83 a6 7c 3d d8 a2 8d bd aa e5 35 bd 17 c6 82 3d
       0.061682235 -0.069158256 -0.044408478 0.06385439
000240 66 7a 0c 3c c0 be ee 3c a0 1c a9 3d 85 3d 56 bd
       0.008574104 0.029143691 0.08257413 -0.052304763
000250 f1 87 af 3d e4 57 83 3d 4b e7 4e 3d b2 04 a4 bd
       0.08570851 0.06413248 0.050513547 -0.08008708
000260 19 df 2a 3d 8e 38 3e 3d 3a ea 8f bd 00 a0 fa 3c
       0.04171667 0.046440654 -0.07027097 0.030593872
000270 6a af 6b bd 8c 4f 9e 3d 96 a8 cf b7 33 63 ad 3c
       -0.057540335 0.07730016 -2.4754827e-05 0.021165466
000280 3c be b4 3d 32 fa 62 3d 99 ec 2a bd ef f3 08 bd
       0.08825347 0.055414386 -0.041729543 -0.03343576
000290 29 5d 70 3d 7c 32 a0 bd b9 55 b2 bd 05 80 54 3c
       0.058682594 -0.07822129 -0.087077565 0.012969975
0002a0 fc 0b cd 3c d1 d2 3a 3b a0 73 8b bd e0 74 14 3c
       0.025030129 0.0028507004 -0.06809163 0.009061068
0002b0 01 b5 8b bd df 25 99 3d 73 e0 73 3d 04 43 f6 ba
       -0.06821633 0.074779265 0.059540223 -0.0018788283
0002c0 53 3a 94 bd 35 e6 ad bd 06 a0 6b bd 86 94 3d ba
       -0.07237687 -0.08491174 -0.057525657 -0.00072319095
0002d0 2e f5 b7 3c a1 42 9c bd ae 2a 17 bd 9c 2e 3f 3d
       0.022455778 -0.07629896 -0.036905937 0.04667531
0002e0 a1 aa 2f 3d 6a cc b8 bc 6e 6a 80 bd 41 9c aa 3d
       0.042887334 -0.02255841 -0.062703 0.08330584
0002f0 cd 67 31 3d ae 50 37 bc aa 79 76 bb a8 16 8d 3d
       0.043311883 -0.011188669 -0.0037609139 0.06889087
000300 95 72 a5 3d 4e 14 0a bd 88 8b 94 bd 58 25 82 3d
       0.080784954 -0.03371077 -0.07253176 0.06354779
000310 b7 be ae 3d 45 6a 7a 3b 26 5b c9 bc 0d ba fb 3c
       0.0853247 0.0038210314 -0.024579596 0.030728364
000320 0b 15 a8 bd 07 48 5c 3c 21 0f ce bc bd 83 b0 3c
       -0.08207139 0.013444907 -0.025153698 0.021547193
000330 6e a0 c1 bc d6 ba f4 3c 38 8b 00 3d 65 6c 14 3d
       -0.02363607 0.029874247 0.03138277 0.036236186
000340 45 b3 de bc 0d b3 0f 3d ff 65 12 3d e3 54 0e bd
       -0.027185092 0.035082866 0.035741802 -0.034748923
000350 ef 74 55 bb ab 77 79 bd ed 43 16 3d a3 6e aa 3d
       -0.0032570919 -0.06090514 0.036685873 0.083218835
000360 25 6f 01 bd 24 34 a1 3c bf 76 1d 3d 19 83 ad bd
       -0.031600136 0.019678183 0.038443323 -0.084722705
000370 d2 80 98 3d 62 13 66 3c 1b 72 17 bd 7b 17 6a bd
       0.074464455 0.014042707 -0.036974054 -0.0571513
000380 57 1c f5 bc 17 23 84 3c eb 3f 8e 3b 3a 06 63 bd
       -0.02992074 0.016130013 0.0043411157 -0.05542586
000390 0f 5a 09 bd 8e db bd bc 9d 89 1f 3d 8f c3 0e bd
       -0.033533152 -0.02317598 0.038949598 -0.034854468
0003a0 fb e1 57 3d 55 c2 94 3d 96 62 8d bc 13 2b 5e bc
       0.052705746 0.072636284 -0.017258924 -0.013560074
0003b0 6d 12 be bc 20 82 ad bd 3d 0f 54 3b 1d f5 73 3c
       -0.023202145 -0.08472085 0.0032357716 0.0148899825
0003c0 43 b6 a2 bd e8 82 4f 3c 7b 21 b0 3d f4 0a 19 bd
       -0.0794492 0.012665488 0.08600136 -0.03736396
0003d0 9c 91 23 3d 29 af 31 bd c4 b9 a5 bd 9d c9 8d 3d
       0.039933786 -0.043379936 -0.080920726 0.0692322
0003e0 c4 af 01 3d 7a bf 6a bd e5 5a 11 bc 5c 29 3f 3d
       0.031661764 -0.057311513 -0.008871769 0.046670303
0003f0 6d 06 33 3d a2 ab 4e bd 7e f9 1c 3d d8 4a 9c bd
       0.0437073 -0.05045665 0.03832387 -0.07631463

bz f4 [128]
000000 00 00 00 00 00 00 00 00 00 00 00 00 00 00 00 00
       0.0 0.0 0.0 0.0
000010 00 00 00 00 00 00 00 00 00 00 00 00 00 00 00 00
       0.0 0.0 0.0 0.0
000020 00 00 00 00 00 00 00 00 00 00 00 00 00 00 00 00
       0.0 0.0 0.0 0.0
000030 00 00 00 00 00 00 00 00 00 00 00 00 00 00 00 00
       0.0 0.0 0.0 0.0
000040 00 00 00 00 00 00 00 00 00 00 00 00 00 00 00 00
       0.0 0.0 0.0 0.0
000050 00 00 00 00 00 00 00 00 00 00 00 00 00 00 00 00
       0.0 0.0 0.0 0.0
000060 00 00 00 00 00 00 00 00 00 00 00 00 00 00 00 00
       0.0 0.0 0.0 0.0
000070 00 00 00 00 00 00 00 00 00 00 00 00 00 00 00 00
       0.0 0.0 0.0 0.0
000080 00 00 00 00 00 00 00 00 00 00 00 00 00 00 00 00
       0.0 0.0 0.0 0.0
000090 00 00 00 00 00 00 00 00 00 00 00 00 00 00 00 00
       0.0 0.0 0.0 0.0
0000a0 00 00 00 00 00 00 00 00 00 00 00 00 00 00 00 00
       0.0 0.0 0.0 0.0
0000b0 00 00 00 00 00 00 00 00 00 00 00 00 00 00 00 00
       0.0 0.0 0.0 0.0
0000c0 00 00 00 00 00 00 00 00 00 00 00 00 00 00 00 00
       0.0 0.0 0.0 0.0
0000d0 00 00 00 00 00 00 00 00 00 00 00 00 00 00 00 00
       0.0 0.0 0.0 0.0
0000e0 00 00 00 00 00 00 00 00 00 00 00 00 00 00 00 00
       0.0 0.0 0.0 0.0
0000f0 00 00 00 00 00 00 00 00 00 00 00 00 00 00 00 00
       0.0 0.0 0.0 0.0
000100 00 00 00 00 00 00 00 00 00 00 00 00 00 00 00 00
       0.0 0.0 0.0 0.0
000110 00 00 00 00 00 00 00 00 00 00 00 00 00 00 00 00
       0.0 0.0 0.0 0.0
000120 00 00 00 00 00 00 00 00 00 00 00 00 00 00 00 00
       0.0 0.0 0.0 0.0
000130 00 00 00 00 00 00 00 00 00 00 00 00 00 00 00 00
       0.0 0.0 0.0 0.0
000140 00 00 00 00 00 00 00 00 00 00 00 00 00 00 00 00
       0.0 0.0 0.0 0.0
000150 00 00 00 00 00 00 00 00 00 00 00 00 00 00 00 00
       0.0 0.0 0.0 0.0
000160 00 00 00 00 00 00 00 00 00 00 00 00 00 00 00 00
       0.0 0.0 0.0 0.0
000170 00 00 00 00 00 00 00 00 00 00 00 00 00 00 00 00
       0.0 0.0 0.0 0.0
000180 00 00 00 00 00 00 00 00 00 00 00 00 00 00 00 00
       0.0 0.0 0.0 0.0
000190 00 00 00 00 00 00 00 00 00 00 00 00 00 00 00 00
       0.0 0.0 0.0 0.0
0001a0 00 00 00 00 00 00 00 00 00 00 00 00 00 00 00 00
       0.0 0.0 0.0 0.0
0001b0 00 00 00 00 00 00 00 00 00 00 00 00 00 00 00 00
       0.0 0.0 0.0 0.0
0001c0 00 00 00 00 00 00 00 00 00 00 00 00 00 00 00 00
       0.0 0.0 0.0 0.0
0001d0 00 00 00 00 00 00 00 00 00 00 00 00 00 00 00 00
       0.0 0.0 0.0 0.0
0001e0 00 00 00 00 00 00 00 00 00 00 00 00 00 00 00 00
       0.0 0.0 0.0 0.0
0001f0 00 00 00 00 00 00 00 00 00 00 00 00 00 00 00 00
       0.0 0.0 0.0 0.0

mu f4 [133]
000000 00 00 00 00 00 00 00 00 00 00 00 00 00 00 00 00
       0.0 0.0 0.0 0.0
000010 00 00 00 00 00 00 00 00 00 00 00 00 00 00 00 00
       0.0 0.0 0.0 0.0
000020 00 00 00 00 00 00 00 00 00 00 00 00 00 00 00 00
       0.0 0.0 0.0 0.0
000030 00 00 00 00 00 00 00 00 00 00 00 00 00 00 00 00
       0.0 0.0 0.0 0.0
000040 00 00 00 00 00 00 00 00 00 00 00 00 00 00 00 00
       0.0 0.0 0.0 0.0
000050 00 00 00 00 00 00 00 00 00 00 00 00 00 00 00 00
       0.0 0.0 0.0 0.0
000060 00 00 00 00 00 00 00 00 00 00 00 00 00 00 00 00
       0.0 0.0 0.0 0.0
000070 00 00 00 00 00 00 00 00 00 00 00 00 00 00 00 00
       0.0 0.0 0.0 0.0
000080 00 00 00 00 00 00 00 00 00 00 00 00 00 00 00 00
       0.0 0.0 0.0 0.0
000090 00 00 00 00 00 00 00 00 00 00 00 00 00 00 00 00
       0.0 0.0 0.0 0.0
0000a0 00 00 00 00 00 00 00 00 00 00 00 00 00 00 00 00
       0.0 0.0 0.0 0.0
0000b0 00 00 00 00 00 00 00 00 00 00 00 00 00 00 00 00
       0.0 0.0 0.0 0.0
0000c0 00 00 00 00 00 00 00 00 00 00 00 00 00 00 00 00
       0.0 0.0 0.0 0.0
0000d0 00 00 00 00 00 00 00 00 00 00 00 00 00 00 00 00
       0.0 0.0 0.0 0.0
0000e0 00 00 00 00 00 00 00 00 00 00 00 00 00 00 00 00
       0.0 0.0 0.0 0.0
0000f0 00 00 00 00 00 00 00 00 00 00 00 00 00 00 00 00
       0.0 0.0 0.0 0.0
000100 00 00 00 00 00 00 00 00 00 00 00 00 00 00 00 00
       0.0 0.0 0.0 0.0
000110 00 00 00 00 00 00 00 00 00 00 00 00 00 00 00 00
       0.0 0.0 0.0 0.0
000120 00 00 00 00 00 00 00 00 00 00 00 00 00 00 00 00
       0.0 0.0 0.0 0.0
000130 00 00 00 00 00 00 00 00 00 00 00 00 00 00 00 00
       0.0 0.0 0.0 0.0
000140 00 00 00 00 00 00 00 00 00 00 00 00 00 00 00 00
       0.0 0.0 0.0 0.0
000150 00 00 00 00 00 00 00 00 00 00 00 00 00 00 00 00
       0.0 0.0 0.0 0.0
000160 00 00 00 00 00 00 00 00 00 00 00 00 00 00 00 00
       0.0 0.0 0.0 0.0
000170 00 00 00 00 00 00 00 00 00 00 00 00 00 00 00 00
       0.0 0.0 0.0 0.0
000180 00 00 00 00 00 00 00 00 00 00 00 00 00 00 00 00
       0.0 0.0 0.0 0.0
000190 00 00 00 00 00 00 00 00 00 00 00 00 00 00 00 00
       0.0 0.0 0.0 0.0
0001a0 00 00 00 00 00 00 00 00 00 00 00 00 00 00 00 00
       0.0 0.0 0.0 0.0
0001b0 00 00 00 00 00 00 00 00 00 00 00 00 00 00 00 00
       0.0 0.0 0.0 0.0
0001c0 00 00 00 00 00 00 00 00 00 00 00 00 00 00 00 00
       0.0 0.0 0.0 0.0
0001d0 00 00 00 00 00 00 00 00 00 00 00 00 00 00 00 00
       0.0 0.0 0.0 0.0
0001e0 00 00 00 00 00 00 00 00 00 00 00 00 00 00 00 00
       0.0 0.0 0.0 0.0
0001f0 00 00 00 00 00 00 00 00 00 00 00 00 00 00 00 00
       0.0 0.0 0.0 0.0
000200 00 00 00 00 00 00 00 00 00 00 00 00 00 00 00 00
       0.0 0.0 0.0 0.0
000210 00 00 00 00
       0.0

s2 f4 [133]
000000 00 00 80 3f 00 00 80 3f 00 00 80 3f 00 00 80 3f
       1.0 1.0 1.0 1.0
000010 00 00 80 3f 00 00 80 3f 00 00 80 3f 00 00 80 3f
       1.0 1.0 1.0 1.0
000020 00 00 80 3f 00 00 80 3f 00 00 80 3f 00 00 80 3f
       1.0 1.0 1.0 1.0
000030 00 00 80 3f 00 00 80 3f 00 00 80 3f 00 00 80 3f
       1.0 1.0 1.0 1.0
000040 00 00 80 3f 00 00 80 3f 00 00 80 3f 00 00 80 3f
       1.0 1.0 1.0 1.0
000050 00 00 80 3f 00 00 80 3f 00 00 80 3f 00 00 80 3f
       1.0 1.0 1.0 1.0
000060 00 00 80 3f 00 00 80 3f 00 00 80 3f 00 00 80 3f
       1.0 1.0 1.0 1.0
000070 00 00 80 3f 00 00 80 3f 00 00 80 3f 00 00 80 3f
       1.0 1.0 1.0 1.0
000080 00 00 80 3f 00 00 80 3f 00 00 80 3f 00 00 80 3f
       1.0 1.0 1.0 1.0
000090 00 00 80 3f 00 00 80 3f 00 00 80 3f 00 00 80 3f
       1.0 1.0 1.0 1.0
0000a0 00 00 80 3f 00 00 80 3f 00 00 80 3f 00 00 80 3f
       1.0 1.0 1.0 1.0
0000b0 00 00 80 3f 00 00 80 3f 00 00 80 3f 00 00 80 3f
       1.0 1.0 1.0 1.0
0000c0 00 00 80 3f 00 00 80 3f 00 00 80 3f 00 00 80 3f
       1.0 1.0 1.0 1.0
0000d0 00 00 80 3f 00 00 80 3f 00 00 80 3f 00 00 80 3f
       1.0 1.0 1.0 1.0
0000e0 00 00 80 3f 00 00 80 3f 00 00 80 3f 00 00 80 3f
       1.0 1.0 1.0 1.0
0000f0 00 00 80 3f 00 00 80 3f 00 00 80 3f 00 00 80 3f
       1.0 1.0 1.0 1.0
000100 00 00 80 3f 00 00 80 3f 00 00 80 3f 00 00 80 3f
       1.0 1.0 1.0 1.0
000110 00 00 80 3f 00 00 80 3f 00 00 80 3f 00 00 80 3f
       1.0 1.0 1.0 1.0
000120 00 00 80 3f 00 00 80 3f 00 00 80 3f 00 00 80 3f
       1.0 1.0 1.0 1.0
000130 00 00 80 3f 00 00 80 3f 00 00 80 3f 00 00 80 3f
       1.0 1.0 1.0 1.0
000140 00 00 80 3f 00 00 80 3f 00 00 80 3f 00 00 80 3f
       1.0 1.0 1.0 1.0
000150 00 00 80 3f 00 00 80 3f 00 00 80 3f 00 00 80 3f
       1.0 1.0 1.0 1.0
000160 00 00 80 3f 00 00 80 3f 00 00 80 3f 00 00 80 3f
       1.0 1.0 1.0 1.0
000170 00 00 80 3f 00 00 80 3f 00 00 80 3f 00 00 80 3f
       1.0 1.0 1.0 1.0
000180 00 00 80 3f 00 00 80 3f 00 00 80 3f 00 00 80 3f
       1.0 1.0 1.0 1.0
000190 00 00 80 3f 00 00 80 3f 00 00 80 3f 00 00 80 3f
       1.0 1.0 1.0 1.0
0001a0 00 00 80 3f 00 00 80 3f 00 00 80 3f 00 00 80 3f
       1.0 1.0 1.0 1.0
0001b0 00 00 80 3f 00 00 80 3f 00 00 80 3f 00 00 80 3f
       1.0 1.0 1.0 1.0
0001c0 00 00 80 3f 00 00 80 3f 00 00 80 3f 00 00 80 3f
       1.0 1.0 1.0 1.0
0001d0 00 00 80 3f 00 00 80 3f 00 00 80 3f 00 00 80 3f
       1.0 1.0 1.0 1.0
0001e0 00 00 80 3f 00 00 80 3f 00 00 80 3f 00 00 80 3f
       1.0 1.0 1.0 1.0
0001f0 00 00 80 3f 00 00 80 3f 00 00 80 3f 00 00 80 3f
       1.0 1.0 1.0 1.0
000200 00 00 80 3f 00 00 80 3f 00 00 80 3f 00 00 80 3f
       1.0 1.0 1.0 1.0
000210 00 00 80 3f
       1.0
