out_m3/self_model.npz (npz, 139694 bytes, 8 tensors)

W1 f4 [128, 133]
0.028295415 -0.060972404 0.060935497 -0.061531506 -0.00082853134 0.02595285 -0.075674355 0.0050008898
0.07769255 -0.088803165 -0.024442887 -0.009284732 0.08292688 -0.03589127 -0.04662312 -0.06729264
-0.036663212 -0.058024917 -0.017817171 -0.035965838 -0.0235014 -0.0010986557 0.082921036 -0.011603527
0.03665655 -0.00022321493 0.04949506 -0.07221904 0.073406525 0.08269343 0.059272163 -0.047874764
-0.06634498 0.029383197 0.06327678 -0.0833818 0.026800776 -0.083866216 -0.056988634 0.083714806
0.000464481 -0.023797117 0.0727502 -0.057322495 0.07901205 0.018493205 0.05616099 -0.051448513
-0.057906527 -0.06304117 -0.026883593 -0.062925644 0.05472921 0.0709235 -0.02153187 -0.035201788
-0.06900631 0.032465298 0.05901179 0.06116194 0.056002434 0.020537794 -0.07582127 -0.051500697
-0.0033546032 0.038235676 0.01694848 -0.06190267 -0.05317199 -0.046287347 -0.0616394 -0.053282175
0.07952897 0.045128595 -0.005290577 -0.074421816 -0.03969254 -0.02963212 0.046723235 0.077580504
-0.08083852 0.0037566365 -0.061099183 -0.047937464 -0.0344473 0.04334102 -0.042924818 0.07856698
-0.08377631 -0.078804016 -0.0016608487 -0.085570864 0.047995362 0.027894512 0.058435857 -0.058729757
0.047700476 0.042121317 0.029940573 0.00558601 -0.019811742 0.051034477 0.021772517 -0.029759519
-0.04808006 -0.00019607432 0.06419235 -0.047517933 -0.045217976 -0.029395467 0.04185627 0.047093112
0.012018453 0.045419104 0.06548425 0.052271444 -0.0144678615 -0.06828049 0.056185875 -0.05926662
-0.06452954 -0.058594573 0.064977795 -0.07396977 0.058399975 0.009027096 0.010379772 0.06195982
-0.01736778 0.057794087 -0.027382419 -0.04553213 -0.050316032 -0.071262695 -0.07821915 -0.015077668
-0.011776422 -0.011833033 0.053730324 -0.06891492 0.010049603 0.06584196 -0.079430796 -0.082145974
-0.035877693 -0.029922944 -0.019378614 -0.024746208 0.036602594 0.032727525 -0.04355448 -0.08520415
0.052954257 -0.02781854 -0.054267555 0.08261062 -0.0028708305 -0.0039632577 -0.023623789 0.04059627
0.07909991 0.06134674 -0.013954247 -0.051255185 -0.029232392 0.029786084 0.034150984 0.08302685
0.041406836 0.028233347 0.049202267 -0.04965625 -0.0017045311 0.029482799 -0.009144512 0.06261147
0.049844287 -0.0017040095 -0.013396561 0.009018109 0.030067682 -0.07839862 0.02524613 -0.020613244
-0.012636755 -0.062567726 -0.05572667 0.014767639 0.027755717 -0.01201032 -0.071609996 0.045446306
0.035903413 0.06872089 -0.0044551324 0.022153191 -0.044168465 0.03200077 0.06997199 -0.061834525
0.011933296 -0.013417293 0.053028084 0.053070106 0.014141205 -0.057986885 -0.08657639 0.0653014
-0.070714146 -0.051612068 0.013987473 0.05517104 0.044847853 0.08377764 0.043688927 0.057789046
0.08414206 0.05113428 -0.014179562 0.06489396 -0.029908532 -0.08519375 0.020861514 0.047050133
0.07231578 0.044517096 0.03268417 0.08483923 -0.026418826 -0.027974341 -0.039998192 0.024812382
-0.01994768 0.0045000575 0.07890592 0.07802504 -0.032797243 -0.0265949 -0.01855982 0.05608737
0.0817715 -0.044325035 -0.033560168 -0.040023465 -0.030944508 0.07291622 0.05267247 -0.016811332
0.056729753 -0.057263274 0.062487986 0.021479739 0.022425093 0.013095197 -0.05410092 0.034161977
00000000: c9cb e73c 33be 79bd 8097 793d 7608 7cbd
00000010: cc31 59ba 129b d43c 28fb 9abd 81de a33b
00000020: 461d 9f3d 6fde b5bd 733c c8bc fd1e 18bc
00000030: 91d5 a93d b902 13bd e2f7 3ebd b9d0 89bd
00000040: 2a2c 16bd 89ab 6dbd 51f5 91bc ea50 13bd
00000050: 0286 c0bc c500 90ba 81d2 a93d b81c 3ebc
00000060: 2e25 163d cd0e 6ab9 55bb 4a3d 93e7 93bd
00000070: 2956 963d 2c5b a93d 5ec7 723d 5418 44bd
00000080: e0df 87bd 08b5 f03c 4297 813d 14c4 aabd
00000090: 4d8d db3c 0dc2 abbd ea6c 69bd ab72 ab3d
000000a0: 9685 f339 2cf2 c2bc 0ffe 943d feca 6abd
000000b0: 12d1 a13d 107f 973c 1109 663d adbb 52bd
000000c0: 652f 6dbd bb1b 81bd fb3a dcbc 29df 80bd
000000d0: bc2b 603d 5740 913d 9b63 b0bc c02f 10bd
000000e0: 2e53 8dbd 55fa 043d 59b6 713d f184 7a3d
000000f0: cf62 653d e03e a83c 2f48 9bbd 65f2 52bd
00000100: e7d8 5bbb 039d 1c3d 8ad7 8a3c a78d 7dbd
00000110: dfca 59bd cd97 3dbd 9879 7cbd 693e 5abd
00000120: 16e0 a23d c3d8 383d 945c adbb 776a 98bd
00000130: a594 22bd 0fbf f2bc dd60 3f3d 87e2 9e3d
00000140: aa8e a5bd e731 763b 2343 7abd 135a 44bd
00000150: 9d18 0dbd 5a86 313d efd1 2fbd bae7 a03d
00000160: ea92 abbd 0064 a1bd d6b0 d9ba c73f afbd
00000170: c996 443d 0883 e43c 705a 6f3d 9d8e 70bd
00000180: 9361 433d 6787 2c3d ef45 f53c d90a b73b
00000190: 3c4c a2bc 8709 513d 475c b23c 3cca f3bc
000001a0: 99ef 44bd 4d99 4db9 4777 833d 2aa2 42bd
000001b0: 7c36 39bd c3ce f0bc 7b71 2b3d b5e4 403d
000001c0: 0ce9 443c 6209 3a3d 9b1c 863d 951a 563d
000001d0: 9c0a 6dbc a4d6 8bbd 2923 663d 8ec1 72bd
000001e0: 1028 84bd dd00 70bd 1413 853d 767d 97bd
000001f0: d034 6f3d 63e6 133c eb0f 2a3c 95c9 7d3d
00000200: e046 8ebc 7eb9 6c3d 1851 e0bc e67f 3abd
00000210: 2f18 4ebd 2df2 91bd 5d31 a0bd 5308 77bc
00000220: e5f1 40bc 56df 41bc 5414 5c3d 4423 8dbd
00000230: 17a7 243c 26d8 863d 9dac a2bd 263c a8bd
00000240: 7df4 12bd f620 f5bc e6bf 9ebc 8fb8 cabc
00000250: 9aec 153d 4c0d 063d 2f66 32bd 837f aebd
00000260: 90e6 583d b5e3 e3bc a847 5ebd c22f a93d
00000270: 8b24 3cbb 37de 81bb ad86 c1bc 4648 263d
00000280: 22ff a13d b846 7b3d 5ba0 64bc f5f0 51bd
00000290: c578 efbc f201 f43c e7e1 0b3d fb09 aa3d
000002a0: 379a 293d 9f49 e73c 5188 493d 5a64 4bbd
000002b0: 936a dfba e985 f13c ddd2 15bc 713a 803d
000002c0: 8629 4c3d 1259 dfba 407d 5bbc b1c0 133c
000002d0: 8050 f63c 758f a0bd f9d0 ce3c 1bdd a8bc
000002e0: 640a 4fbc 8223 80bd a641 64bd f8f3 713c
000002f0: f55f e33c efc6 44bc 43a8 92bd e825 3a3d
00000300: 750f 133d 8abd 8c3d 5cfc 91bb 9c7a b53c
00000310: fee9 34bd 3d13 033d 7a4d 8f3d 3346 7dbd
00000320: df83 433c 35d4 5bbc fa33 593d 0a60 593d
00000330: 83b0 673c a883 6dbd f64e b1bd bebc 853d
00000340: 94d2 90bd 2d67 53bd b72b 653c 07fb 613d
00000350: 62b2 373d 9c93 ab3d 29f3 323d 35b4 6c3d
00000360: ac52 ac3d 2e72 513d 6551 68bc 20e7 843d
00000370: bd02 f5bc 107a aebd c4e5 aa3c a4b7 403d
00000380: 4c1a 943d 8f57 363d d6df 053d 31c0 ad3d
00000390: 4b6c d8bc 722a e5bc 25d5 23bd 5643 cb3c
000003a0: 5169 a3bc 3875 933b 6d99 a13d 98cb 9f3d
000003b0: 6756 06bd 8cdd d9bc c30a 98bc dfbb 653d
000003c0: d177 a73d 2b8e 35bd 6376 09bd a5ef 23bd
000003d0: 567f fdbc 1955 953d 17bf 573d ebb7 89bc
000003e0: 755d 683d e58c 6abd 67f3 7f3d 47f6 af3c
000003f0: d4b4 b73c 3d8d 563c ed98 5dbd 6eed 0b3d

b1 f4 [128]
-0.02387295 0.04454237 -0.011870824 0.00030912296 -0.047373205 -0.010716934 0.013068298 0.00082358386
0.031790182 0.0040016277 0.0059663192 0.012393291 0.03972899 -0.0017552553 -0.00024563947 0.04152391
0.036108404 0.009000109 -0.037868064 -0.035111073 0.009276908 0.029588303 0.014103462 -0.043456096
-0.010812957 0.0012235286 0.015566885 0.014194903 -0.010435767 -0.020468244 -0.030844308 0.003398323
-0.005562572 0.0056612035 -0.05365965 -0.008628268 -0.02866728 -0.073052265 0.06749863 0.04486916
0.023887029 0.07239918 0.0008467726 -0.013297837 -0.018734857 -0.00997355 -0.013606147 0.015483703
-0.026183799 0.011457775 -0.011938655 -0.015952341 0.028899077 0.004082548 -0.035471436 -0.024412446
-9.2567396e-05 -0.06574189 0.02657524 -0.013028887 -0.051141147 0.064010926 0.06987595 -0.018200431
-0.030584652 -0.006150346 -0.013137292 -0.051589783 0.014390967 0.018131822 0.040595453 0.06336587
-0.010470113 -0.06269086 0.07014056 -0.026009945 0.04815052 0.015262221 0.0008997187 -0.0087700365
-0.027367821 0.05097887 -0.0477195 -0.0055379267 -0.0671602 0.020770328 -0.003055804 0.0053451825
0.0033064603 -0.0060511925 0.018014083 -0.012109187 -0.03876494 -0.03331028 0.019282192 -0.04680008
0.07976265 0.037305146 -0.02444687 -0.008620946 0.016859805 0.061064493 -0.040907077 0.019828051
0.009828639 0.015406712 0.021277731 0.08426412 0.043672964 0.00922939 0.013533041 0.009408128
0.026762653 -0.025850939 0.052472565 0.025154367 0.041288808 0.009831164 -0.034209806 -0.052211564
0.016063608 -0.012717942 0.040289678 0.013522583 -0.03864752 0.012835891 0.012746494 -0.04579667
00000000: 3491 c3bc 0f72 363d d87d 42bc c811 a239
00000010: 680a 42bd 1496 2fbc 6a1c 563c c7e5 573a
00000020: 6c36 023d 1620 833b 1d81 c33b 3b0d 4b3c
00000030: deba 223d 9810 e6ba 2cc9 80b9 fa14 2a3d
00000040: 68e6 133d 3175 133c 8b1b 1bbd a1d0 0fbd
00000050: 2cfe 173c 2b63 f23c 3512 673c 05ff 31bd
00000060: d428 31bc cf5e a03a 3f0c 7f3c bd91 683c
00000070: c7fa 2abc 05ad a7bc 34ad fcbc 66b6 5e3b
00000080: 3c46 b6bb 9e81 b93b 39ca 5bbd 945d 0dbc
00000090: a5d7 eabc 6d9c 95bd b93c 8a3d b9c8 373d
000000a0: bbae c33c 0546 943d f2f9 5d3a 2cdf 59bc
000000b0: d879 99bc 1a68 23bc 51ec 5ebc 5caf 7d3c
000000c0: 687f d6bc 64b9 3b3c 599a 43bc 7cae 82bc
000000d0: c2bd ec3c e5c6 853b 7f4a 11bd 9cfc c7bc
000000e0: be20 c2b8 afa3 86bd 51b4 d93c 1d77 55bc
000000f0: 6179 51bd 2918 833d 1f1b 8f3d 1219 95bc
00000100: aa8c fabc d788 c9bb cc3d 57bc cf4f 53bd
00000110: 17c8 6b3c 3089 943c 6b47 263d f7c5 813d
00000120: d68a 2bbc 1164 80bd dba5 8f3d cf12 d5bc
00000130: 7b39 453d 650e 7a3c 1adb 6b3a 33b0 0fbc
00000140: 7b32 e0bc 38cf 503d 8675 43bd 7f77 b5bb
00000150: 498b 89bd 8926 aa3c e243 48bb a426 af3b
00000160: 33b1 583b 1549 c6bb 4592 933c 9d65 46bc
00000170: fcc7 1ebd 5c70 08bd b0f5 9d3c 71b1 3fbd
00000180: 9a5a a33d 48cd 183d cd44 c8bc de3e 0dbc
00000190: 931d 8a3c c31e 7a3d 2e8e 27bd 706e a23c
000001a0: 4d08 213c 6f6c 7c3c a34e ae3c ab92 ac3d
000001b0: 6ce2 323d de36 173c b0b9 5d3c 8d24 1a3c
000001c0: 5a3d db3c 59c5 d3bc 79ed 563d 8810 ce3c
000001d0: 741e 293d e412 213c 951f 0cbd cbdb 55bd
000001e0: d497 833c ea5e 50bc ca06 253d d38d 5d3c
000001f0: dd4c 1ebd a14d 523c acd6 503c 4a95 3bbd

Wo f4 [4, 128]
-0.04878874 0.084756866 -0.060598176 0.039262425 -0.09764646 -0.06919465 -0.038130134 -0.03593785
0.009382582 0.022816489 0.05932197 -0.019254899 0.029798 0.011750482 -0.033432823 0.008584825
0.039379176 0.010443647 -0.032146875 0.02300392 -0.027400598 0.01548473 0.04163474 -0.030501094
0.013798124 -0.08622625 0.04535079 0.06172172 -0.08575257 -0.049048502 -0.041363887 0.02324761
0.054143734 0.035196196 -0.08586446 0.036186997 -0.06968615 -0.097538516 0.06431939 0.08907842
0.03457576 0.07063151 -0.108884245 0.0035622988 -0.027382923 -0.040793564 0.04110716 -0.018241484
0.028627204 0.06575793 -0.06874144 -0.08082444 -0.03188065 -0.024894873 -0.07256557 -0.07003
0.07179366 -0.054471385 -0.012984187 -0.09280598 -0.08684236 0.053530373 0.03899683 0.015345211
-0.100846134 -0.07184647 -0.018998906 -0.043278504 -0.02436485 0.01228288 0.042029914 0.035502024
-0.010436528 -0.079520665 0.067933224 0.0109081175 0.077793464 0.012607885 -0.034353215 -0.024145676
-0.045912262 -0.0047954563 -0.029233484 0.018569477 -0.04308263 0.016850047 -0.023064554 -0.015453783
0.052836083 -0.077505276 -0.023035321 0.036346592 -0.038195074 -0.0806564 0.03767024 -0.07985122
0.08484647 0.01181676 -0.10089338 -0.07652417 -0.0054672733 0.020548256 -0.05053984 0.05985626
0.06884103 0.07584683 0.03554549 0.10635365 0.03406532 0.025629008 0.02075933 -0.060315367
0.05736611 0.007118902 0.00653596 -0.030788297 -0.035111003 0.0062599005 -0.04507847 -0.076402016
-0.0450241 0.010299237 0.07294009 0.0072585675 -0.04325708 -0.005176883 0.03637449 -0.06638846
-0.0022292053 0.008296669 0.058354385 -0.07159335 -0.0089551825 0.03927943 0.04771798 5.9214664e-05
0.033656515 0.0771194 -0.085301444 0.08247435 0.040582985 -0.030157667 0.05730603 0.042470783
0.049362548 0.016787061 0.002340877 -0.08533967 -0.043618903 0.09765251 -0.023238054 -0.06508341
-0.02581069 0.049755186 0.05414465 -0.017517744 0.05552893 -0.031644315 -0.040234372 0.07527489
-0.05939456 -0.050162695 0.014062316 -0.031921748 0.017098224 -0.072012655 0.046769436 -0.07185812
-0.031337455 0.058754504 0.020337207 -0.07628345 -0.05841793 -0.04684987 -0.04014921 0.007049225
-0.069636375 0.013845687 -0.034605067 0.089041695 0.04817025 0.03328711 -0.066469885 -0.06536557
-0.04301327 -0.08442701 0.048026223 -0.01829289 -0.04942707 0.075403936 0.073032 -0.07291454
0.044353727 0.0021366104 0.05643006 -0.06768776 0.07028636 -0.07500786 0.08375389 0.08745044
-0.027434887 -0.03407485 0.043557324 -0.041927695 -0.03215789 0.07352098 -0.04798082 0.06313058
-0.0068967105 0.07246369 -0.09086232 -0.015502326 -0.05502669 -0.05335769 -0.047411334 0.08911127
-0.044736404 -0.01719186 -0.015788902 -0.05183762 -0.09162705 0.043589313 -0.07241449 0.01677216
0.04964606 -0.0027693892 -0.057701543 -0.046586014 0.060526285 0.06750274 -0.09116261 0.0020194135
-0.01302664 0.020848215 0.022837704 0.04619058 0.023378853 0.08492125 0.022861667 0.030221477
-0.05240824 -0.0730592 0.09280583 0.02531964 0.059013654 0.0636126 -0.0009617161 -0.024431115
0.059548464 -0.017132046 0.060711224 -0.059626073 -0.03756775 -0.025000961 0.028483372 -0.06796633
00000000: b4d6 47bd 0295 ad3d cb35 78bd a3d1 203d
00000010: defa c7bd edb5 8dbd 582e 1cbd 9133 13bd
00000020: 67b9 193c a5e9 ba3c 98fb 723d 73bc 9dbc
00000030: ef1a f43c 1885 403c dbf0 08bd 5ea7 0c3c
00000040: 0f4c 213d d51b 2b3c 71ac 03bd b872 bc3c
00000050: 3877 e0bc aab3 7d3c 3089 2a3d 6edd f9bc
00000060: 8711 623c 6397 b0bd c0c1 393d eacf 7c3d
00000070: 0b9f afbd 15e7 48bd 2e6d 29bd c671 be3c
00000080: d2c5 5d3d e329 103d b5d9 afbd d138 143d
00000090: 9db7 8ebd 46c2 c7bd e2b9 833d bf6e b63d
000000a0: 509f 0d3d 41a7 903d b4fe debd 7575 693b
000000b0: 2752 e0bc 2717 27bd fb5f 283d 2a6f 95bc
000000c0: 9983 ea3c 18ac 863d 50c8 8cbd 4987 a5bd
000000d0: 4995 02bd 55f0 cbbc 429d 94bd e36b 8fbd
000000e0: 8e08 933d 631d 5fbd a1bb 54bc 1011 bebd
000000f0: 68da b1bd aa42 5b3d 24bb 1f3d 7b6a 7b3c
00000100: 6b88 cebd 3e24 93bd 98a3 9bbc cd44 31bd
00000110: cb98 c7bc 223e 493c 8f27 2c3d 926a 113d
00000120: f9fd 2abc bbdb a2bd 9320 8b3d f6b7 323c
00000130: 2e52 9f3d 4d91 4e3c f5b5 0cbd 27cd c5bc
00000140: 7f0e 3cbd 3423 9dbb 0f7b efbc 041f 983c
00000150: 6977 30bd 1c09 8a3c e0f1 bcbc dd31 7dbc
00000160: a66a 583d 16bb 9ebd 92b4 bcbc 2ae0 143d
00000170: 7072 1cbd 2f2f a5bd 1c4c 1a3d 0989 a3bd
00000180: fcc3 ad3d 159b 413c 30a1 cebd b4b8 9cbd
00000190: d026 b3bb d154 a83c dd02 4fbd d62b 753d
000001a0: 87fc 8c3d 9555 9b3d 2698 113d f1cf d93d
000001b0: 1488 0b3d edf3 d13c 780f aa3c 3f0d 77bd
000001c0: baf8 6a3d ae45 e93b 9b2b d63b bd37 fcbc
000001d0: 8ed0 0fbd da1f cd3b 34a4 38bd a978 9cbd
000001e0: 316b 38bd 22be 283c 9d61 953d 47d9 ed3b
000001f0: 562e 31bd d8a2 a9bb 6bfd 143d acf6 87bd
00000200: dc17 12bb c1ee 073c 0205 6f3d 899f 92bd
00000210: c2b8 12bc 78e3 203d ee73 433d 435d 7838
00000220: 6adb 093d c7f0 9d3d 86b2 aebd 50e8 a83d
00000230: 583a 263d 360d f7bc bab9 6a3d d8f5 2d3d
00000240: 6230 4a3d 0585 893c 6669 193b 91c6 aebd
00000250: bca9 32bd 0afe c73d bb5d bebc 734a 85bd
00000260: f170 d3bc 18cc 4b3d c8c6 5d3d 5f81 8fbc
00000270: 4e72 633d 789d 01bd cccc 24bd b929 9a3d
00000280: b647 73bd 6677 4dbd a165 663c 61c0 02bd
00000290: 9311 8c3c 5f7b 93bd 4f91 3f3d 5a2a 93bd
000002a0: b45b 00bd 90a8 703d 379a a63c 7f3a 9cbd
000002b0: a447 6fbd a6e5 3fbd 7f73 24bd 2ffd e63b
000002c0: 849d 8ebd 05d9 623c 0bbe 0dbd 7e5b b63d
000002d0: 2b4e 453d 1158 083d 5d21 88bd 62de 85bd
000002e0: af2e 30bd 11e8 acbd 25b7 443d f9da 95bc
000002f0: 0a74 4abd 616d 9a3d cd91 953d 3854 95bd
00000300: 41ac 353d 6006 0c3b 3523 673d e19f 8abd
00000310: 4cf2 8f3d b99d 99bd 2987 ab3d 3719 b33d
00000320: 21bf e0bc 1292 0bbd 2a69 323d 60bc 2bbd
00000330: feb7 03bd 2b92 963d 8987 44bd 9b4a 813d
00000340: cdfd e1bb d867 943d 0616 babd 78fd 7dbc
00000350: ab63 61bd 988d 5abd 6332 42bd f87f b63d
00000360: 853d 37bd f2d5 8cbc ba57 81bc af53 54bd
00000370: f6a6 bbbd b58a 323d 0c4e 94bd c565 893c
00000380: ab59 4b3d a47e 35bb 7458 6cbd fad0 3ebd
00000390: 69ea 773d e03e 8a3d 76b3 babd 2358 043b
000003a0: b06d 55bc e0c9 aa3c 2316 bb3c 5532 3d3d
000003b0: 0285 bf3c 31eb ad3d 6448 bb3c 0893 f73c
000003c0: 06aa 56bd 10a0 95bd fc10 be3d 226b cf3c
000003d0: 4db8 713d 5347 823d ad1b 7cba c323 c8bc
000003e0: 17e9 733d 8158 8cbc 55ac 783d 783a 74bd
000003f0: a4e0 19bd d1ce ccbc f655 e93c ee31 8bbd

bo f4 [4]
0.3935207 0.2978734 0.40017676 0.0063045966
00000000: 8c7b c93e dd82 983e f8e3 cc3e ca96 ce3b

Wz f4 [128, 128]
0.076068185 0.08637818 0.070287436 0.067068145 -0.01424505 -0.04571176 -0.038922492 0.036472842
-0.026660535 -0.05815527 -0.03818335 0.060801614 0.0051081185 -0.0041129314 0.06522773 -0.049856473
-0.059305497 0.035431787 -0.059114873 -0.027326904 -0.010668227 -0.08284078 -0.06813382 0.041635368
0.008324685 0.016628575 0.047862478 0.018699385 -0.06763113 0.03292414 -0.0770608 -0.057980087
0.02077115 -0.068681255 0.027895153 -0.050250743 -0.0107473 0.06860421 -0.030790636 -0.08741788
0.06396304 0.022913601 0.08428861 0.06084019 -0.08777615 -0.011281883 -0.007911536 -0.049611524
0.03434493 -0.06342026 0.056439333 0.0141867865 0.0022288356 -0.06935872 -0.07444012 0.07546668
0.08276143 -0.027969122 -0.06587187 0.054747894 0.033123147 -0.005932223 0.03770419 -0.041329797
0.051582627 -0.0009967557 -0.049335487 -0.036080364 -0.037952088 -0.06549336 0.05255593 -0.03918102
-0.057938907 0.06142164 -0.08573664 -0.08197586 -0.05051614 -0.08030513 -0.051921483 0.031819776
-0.0003223026 -0.052733842 0.04520053 0.07304121 -0.074434966 -0.022336848 -0.043661427 -0.08614637
0.0712604 0.047250584 -0.04472245 0.04980339 -0.03240718 0.004319226 0.07659772 -0.04339389
0.07385571 -0.038991958 -0.006471076 -0.08674638 0.013034242 -0.08475674 -0.010616723 -0.058630593
0.044703934 0.061444387 0.06658696 0.030297773 0.007956707 0.038168427 0.02378236 -0.07260261
-0.0038794023 0.084304444 -0.029972784 -0.07344823 -0.08699712 0.0091660535 0.042117495 -0.076202415
0.06569674 0.0026731184 -0.08144596 0.0061318497 0.009107976 6.978851e-05 -0.08535333 -0.0009732011
-0.0065147323 -0.017746529 -0.056335308 -0.033566676 -0.08706323 0.07943217 -0.011176004 -0.039562546
-0.015922805 0.02852552 0.0804588 0.06970834 0.041051853 0.025809761 -0.056933142 -0.026070824
-0.07140303 0.03599862 -0.066189304 0.07727081 -0.06973012 -0.042958736 0.06803394 0.041079372
0.048459347 0.039343283 -0.06498207 0.002769671 -0.01324087 0.017092036 -0.020040326 -0.054760586
0.07720924 0.02090093 -0.05782914 -0.030998463 -0.029831799 0.03353684 -0.08619664 0.06674437
-0.08407133 0.036571268 0.032250315 -0.032644242 0.0864489 0.07375965 0.0099073425 0.0063071596
-0.050248038 -0.008269101 -0.0061029876 0.06481558 -0.08819811 -0.041531395 -0.012423724 -0.042567737
0.03854518 -0.0023464588 0.06694421 -0.07642717 0.056534536 0.08347454 0.061091695 -0.030518707
0.064083524 0.016388172 -0.06693852 -0.046481133 -0.02594506 -0.018727414 0.044141177 -0.087206125
0.06288998 -0.07106441 -0.0120313 0.029186938 0.03276837 -0.04366004 -0.0532929 0.025033813
0.025443131 -0.0121032 0.08430383 0.035302207 -0.024970938 -0.036240965 0.05175601 0.024533784
0.036180444 -0.0038845718 0.07098287 -0.04266683 0.04045945 0.008479446 0.020402327 -0.037439894
-0.01979831 -0.034064848 -0.027223168 0.051240712 -0.030627107 -0.0126075735 -0.08195212 0.014326528
-0.07863221 -0.067564085 -0.04180555 -0.023106018 0.011244666 0.00024385344 0.059516195 -0.08630862
0.043279633 0.016208231 -0.06312088 0.029460592 0.040469468 -0.06736469 -0.0033826018 -0.02229933
0.039674543 -0.0013218297 0.029517967 0.0192191 -0.01360924 -0.035113804 -0.06927712 0.04149424
00000000: a3c9 9b3d 0be7 b03d dcf2 8f3d 065b 893d
00000010: 1264 69bc 413c 3bbd 316d 1fbd 8c64 153d
00000020: 3267 dabc 3834 6ebd 2566 1cbd 1d0b 793d
00000030: 0162 a73b c5c5 86bb 1e96 853d 4d36 4cbd
00000040: 52ea 72bd ec20 113d 7022 72bd acdc dfbc
00000050: cac9 2ebc 6da8 a9bd bf89 8bbd d989 2a3d
00000060: 4264 083c a638 883c 720b 443d 742f 993c
00000070: 3182 8abd 77db 063d 0dd2 9dbd 877c 6dbd
00000080: 4228 aa3c c2a8 8cbd 6084 e43c b9d3 4dbd
00000090: 7215 30bc 5d80 8c3d a53c fcbc 2508 b3bd
000000a0: 0eff 823d 4eb5 bb3c 829f ac3d 9033 793d
000000b0: fbc3 b3bd a6d7 38bc 639f 01bc 7435 4bbd
000000c0: 45ad 0c3d 7be2 81bd ee2c 673d b26f 683c
000000d0: a811 123b f20b 8ebd 1074 98bd 468e 9a3d
000000e0: d37e a93d 801f e5bc d5e7 86bd 543f 603d
000000f0: 23ac 073d 1863 c2bb b56f 1a3d 6f49 29bd
00000100: 4e48 533d 92a5 82ba 0214 4abd 01c9 13bd
00000110: a673 1bbd 6221 86bd e344 573d 477c 20bd
00000120: 5951 6dbd 4295 7b3d b196 afbd f6e2 a7bd
00000130: 03ea 4ebd 0477 a4bd 9fab 54bd 7455 023d
00000140: b9fa a8b9 71ff 57bd 3124 393d a196 953d
00000150: 5c71 98bd c4fb b6bc 53d6 32bd 826d b0bd
00000160: f9f0 913d d489 413d e32e 37bd a4fe 4b3d
00000170: 64bd 04bd 4b88 8d3b 44df 9c3d cbbd 31bd
00000180: aa41 973d 08b6 1fbd 520b d4bb 16a8 b1bd
00000190: 938d 553c f194 adbd c4f1 2dbc a226 70bd
000001a0: 791b 373d 1cad 7b3d be5e 883d 0933 f83c
000001b0: d95c 023c 7f56 1c3d 39d3 c23c adb0 94bd
000001c0: 923d 7ebb cfa7 ac3d 7c89 f5bc 076c 96bd
000001d0: 8c2b b2bd 372d 163c 6583 2c3d 0310 9cbd
000001e0: 038c 863d 7c2f 2f3b 24cd a6bd afed c83b
000001f0: 9f39 153c 6c5b 9238 bacd aebd 6c1e 7fba
00000200: 8979 d5bb 2b61 91bc dabf 66bd 367d 09bd
00000210: 354e b2bd 55ad a23d 8f1b 37bc 560c 22bd
00000220: 8b70 82bc 5aae e93c 95c7 a43d 3fc3 8e3d
00000230: fd25 283d fe6e d33c ba32 69bd 7b92 d5bc
00000240: c03b 92bd 4a73 133d 428e 87bd 2940 9e3d
00000250: aace 8ebd 80f5 2fbd 6155 8b3d d842 283d
00000260: 4f7d 463d 6c26 213d 5215 85bd 5e83 353b
00000270: 3cf0 58bc 9904 8c3c 9c2b a4bc a34c 60bd
00000280: e11f 9e3d 6d38 ab3c 40de 6cbd 7df0 fdbc
00000290: d161 f4bc ed5d 093d dd87 b0bd 46b1 883d
000002a0: 972d acbd c1cb 153d e818 043d f8b5 05bd
000002b0: 1f0c b13d 4d0f 973d 6852 223c 4aac ce3b
000002c0: e3d0 4dbd 207b 07bc 92fb c7bb 08be 843d
000002d0: 36a1 b4bd d31c 2abd e08c 4bbc 825b 2ebd
000002e0: 8de1 1d3d 0cc7 19bb 0c1a 893d d985 9cbd
000002f0: c290 673d b3f4 aa3d 493b 7a3d 5e02 fabc
00000300: 393e 833d 7d40 863c 1017 89bd 0063 3ebd
00000310: bc8a d4bc 3c6a 99bc 61cd 343d 2099 b2bd
00000320: 76cc 803d 388a 91bd ee1e 45bc 7219 ef3c
00000330: 2038 063d dfd4 32bd a849 5abd b613 cd3c
00000340: 1d6e d03c 804c 46bc 7da7 ac3d 0c99 103d
00000350: da8f ccbc 6871 14bd 1cfe 533d 13fb c83c
00000360: f231 143d 4d94 7ebb 785f 913d 6ac3 2ebd
00000370: cfb8 253d 60ed 0a3c c822 a73c 935a 19bd
00000380: 1130 a2bc 9587 0bbd 1f03 dfbc c8e1 513d
00000390: b3e5 fabc ff8f 4ebc 83d6 a7bd d0b9 6a3c
000003a0: ed09 a1bd 0a5f 8abd 4c3c 2bbd d548 bdbc
000003b0: 8c3b 383c e9b2 7f39 41c7 733d 93c2 b0bd
000003c0: fc45 313d 20c7 843c 8545 81bd 5757 f13c
000003d0: 50c3 253d 80f6 89bd a4ae 5dbb 16ad b6bc
000003e0: c681 223d 3f41 adba aacf f13c 6071 9d3c
000003f0: 4af9 5ebc 7ed3 0fbd 2ae1 8dbd ddf5 293d

bz f4 [128]
-0.00014067486 -0.002232107 0.002195379 -0.0033069658 0.00014240395 0.0021610882 0.0032987397 0.0016641438
0.0003541525 0.0038154402 -0.002033963 0.0021514865 3.1861204e-05 -0.00012504005 -4.1810097e-05 -1.2160115e-05
-1.4670535e-05 -1.4559669e-05 2.2665603e-05 -9.566812e-05 5.0459275e-05 -6.094792e-06 -9.162473e-05 -3.1128868e-05
6.349224e-05 2.2671024e-06 1.95007e-05 -0.000119312695 -2.774789e-05 -1.8602876e-05 0.00014826913 -3.21092e-05
4.346792e-05 -8.045388e-06 2.6464093e-05 -4.114404e-05 9.4647454e-05 -1.4470875e-05 5.2655767e-05 -1.9334944e-05
4.3901273e-05 -9.478701e-06 0.00014812805 -2.2061004e-05 5.9650112e-05 -1.5247278e-05 2.6041055e-06 -9.19616e-06
-7.904715e-05 -4.081353e-05 3.3128767e-05 2.0664775e-05 9.938771e-06 -0.00010977146 5.013591e-05 -7.184821e-05
-1.19183205e-05 5.1676914e-05 8.34161e-05 9.846702e-05 4.1625412e-06 3.350038e-05 4.9921586e-05 9.3641165e-06
4.326816e-05 -1.314891e-05 -1.6507114e-05 0.00010562582 -1.2657689e-05 -2.3169523e-05 2.7812153e-05 2.1124757e-05
-2.0733314e-05 3.5911795e-05 -4.3664273e-05 1.2069034e-06 3.4120254e-05 -6.50576e-05 -5.090972e-05 -2.9492116e-05
-9.9136574e-05 2.235419e-05 2.757202e-05 3.114327e-05 -9.601018e-05 -8.348115e-05 -6.968495e-05 -0.00013043986
1.1527146e-06 2.0140295e-05 -4.4331286e-05 -3.3501776e-05 -9.399118e-05 4.5625067e-05 8.4676394e-05 2.9644532e-05
-9.391231e-05 -2.7938919e-05 6.305957e-05 4.928367e-05 0.00011006022 -7.89468e-05 -7.1834635e-05 1.629832e-05
0.00016210029 0.00014453134 -8.3349834e-05 -3.979327e-05 -4.487282e-06 2.502041e-05 -6.618571e-06 -2.3608143e-05
-0.00011088871 2.7334903e-05 3.701497e-05 -4.1320938e-05 -2.3972678e-05 4.5715777e-05 -6.769456e-05 -3.3657157e-05
-1.9721738e-06 -2.5056877e-05 -4.5851415e-05 -7.6150964e-06 8.84729e-06 1.6184553e-05 1.0273354e-05 1.0523159e-05
00000000: 1f82 13b9 8b48 12bb 59e0 0f3b aeb9 58bb
00000010: 4552 1539 0ba1 0d3b ab2f 583b 661f da3a
00000020: 8bad b939 770c 7a3b 3d4c 05bb f4ff 0c3b
00000030: b5a2 0538 2f1d 03b9 405d 2fb8 4c03 4cb7
00000040: 7821 76b7 4d45 74b7 0322 be37 6ea1 c8b8
00000050: 3ca4 5338 dd81 ccb6 a726 c0b8 5e90 02b8
00000060: 2327 8538 8624 1836 6f95 a337 8437 fab8
00000070: 24c4 e8b7 5f0d 9cb7 b178 1b39 feac 06b8
00000080: 5351 3638 aefa 06b7 35ff dd37 1492 2cb8
00000090: 777d c638 efc7 72b7 b3da 5c38 7a31 a2b7
000000a0: a222 3838 b606 1fb7 d252 1b39 a50f b9b7
000000b0: d230 7a38 8fce 7fb7 31c2 2e36 3549 1ab7
000000c0: 1ec6 a5b8 322f 2bb8 bef3 0a38 4459 ad37
000000d0: b2be 2637 1b35 e6b8 0649 5238 37ad 96b8
000000e0: ccf4 47b7 aabf 5838 adef ae38 1480 ce38
000000f0: f5ab 8b36 c282 0c38 e562 5138 931a 1d37
00000100: d57a 3538 239a 5cb7 c278 8ab7 6e83 dd38
00000110: 5c5c 54b7 2c5c c2b7 254e e937 1235 b137
00000120: 74ec adb7 ff9f 1638 2824 37b8 e3fc a135
00000130: 581c 0f38 886f 88b8 e587 55b8 d665 f7b7
00000140: 8be7 cfb8 4285 bb37 764a e737 d59f 0238
00000150: 1359 c9b8 9a12 afb8 d323 92b8 afc6 08b9
00000160: f9b6 9a35 f4f2 a837 5bf0 39b8 4284 0cb8
00000170: 211d c5b8 8b5d 3f38 4b94 b138 26ad f837
00000180: caf2 c4b8 5f5e eab7 d93e 8438 f0b5 4e38
00000190: 21d0 e638 3e90 a5b8 eda5 96b8 60b8 8837
000001a0: 77f9 2939 568d 1739 1acc aeb8 b3e7 26b8
000001b0: 7591 96b6 ece2 d137 1815 deb6 1a0a c6b7
000001c0: ec8c e8b8 424d e537 8540 1b38 0550 2db8
000001d0: ef18 c9b7 f1be 3f38 3df7 8db8 192b 0db8
000001e0: b059 04b6 3c31 d2b7 9550 40b8 2e85 ffb6
000001f0: d26e 1437 10c4 8737 b85b 2c37 a08c 3037

mu f4 [133]
-0.060596164 -0.551236 0.48082906 -0.803531 0.20366429 0.33733246 0.63197774 0.30882487
0.064378284 0.9084165 -0.48638692 0.5105218 0.0 0.0 0.0 0.0
0.0 0.0 0.0 0.0 0.0 0.0 0.0 0.0
0.0 0.0 0.0 0.0 0.0 0.0 0.0 0.0
0.0 0.0 0.0 0.0 0.0 0.0 0.0 0.0
0.0 0.0 0.0 0.0 0.0 0.0 0.0 0.0
0.0 0.0 0.0 0.0 0.0 0.0 0.0 0.0
0.0 0.0 0.0 0.0 0.0 0.0 0.0 0.0
0.0 0.0 0.0 0.0 0.0 0.0 0.0 0.0
0.0 0.0 0.0 0.0 0.0 0.0 0.0 0.0
0.0 0.0 0.0 0.0 0.0 0.0 0.0 0.0
0.0 0.0 0.0 0.0 0.0 0.0 0.0 0.0
0.0 0.0 0.0 0.0 0.0 0.0 0.0 0.0
0.0 0.0 0.0 0.0 0.0 0.0 0.0 0.0
0.0 0.0 0.0 0.0 0.0 0.0 0.0 0.0
0.0 0.0 0.0 0.0 0.0 0.0 0.0 0.0
0.22542688 0.974016 0.9893664 1.430735 0.80505884
00000000: af33 78bd cd1d 0dbf 3a2f f63e 35b4 4dbf
00000010: 5f8d 503e d7b6 ac3e 4bc9 213f 4b1e 9e3e
00000020: c3d8 833d fc8d 683f b507 f9be 8fb1 023f
00000030: 0000 0000 0000 0000 0000 0000 0000 0000
00000040: 0000 0000 0000 0000 0000 0000 0000 0000
00000050: 0000 0000 0000 0000 0000 0000 0000 0000
00000060: 0000 0000 0000 0000 0000 0000 0000 0000
00000070: 0000 0000 0000 0000 0000 0000 0000 0000
00000080: 0000 0000 0000 0000 0000 0000 0000 0000
00000090: 0000 0000 0000 0000 0000 0000 0000 0000
000000a0: 0000 0000 0000 0000 0000 0000 0000 0000
000000b0: 0000 0000 0000 0000 0000 0000 0000 0000
000000c0: 0000 0000 0000 0000 0000 0000 0000 0000
000000d0: 0000 0000 0000 0000 0000 0000 0000 0000
000000e0: 0000 0000 0000 0000 0000 0000 0000 0000
000000f0: 0000 0000 0000 0000 0000 0000 0000 0000
00000100: 0000 0000 0000 0000 0000 0000 0000 0000
00000110: 0000 0000 0000 0000 0000 0000 0000 0000
00000120: 0000 0000 0000 0000 0000 0000 0000 0000
00000130: 0000 0000 0000 0000 0000 0000 0000 0000
00000140: 0000 0000 0000 0000 0000 0000 0000 0000
00000150: 0000 0000 0000 0000 0000 0000 0000 0000
00000160: 0000 0000 0000 0000 0000 0000 0000 0000
00000170: 0000 0000 0000 0000 0000 0000 0000 0000
00000180: 0000 0000 0000 0000 0000 0000 0000 0000
00000190: 0000 0000 0000 0000 0000 0000 0000 0000
000001a0: 0000 0000 0000 0000 0000 0000 0000 0000
000001b0: 0000 0000 0000 0000 0000 0000 0000 0000
000001c0: 0000 0000 0000 0000 0000 0000 0000 0000
000001d0: 0000 0000 0000 0000 0000 0000 0000 0000
000001e0: 0000 0000 0000 0000 0000 0000 0000 0000
000001f0: 0000 0000 0000 0000 0000 0000 0000 0000
00000200: 4ed6 663e 1d59 793f 1e47 7d3f 5322 b73f
00000210: 5618 4e3f

s2 f4 [133]
0.012360027 0.0016545549 0.0115364175 2.5795785e-05 0.5262929 0.10761597 0.17606667 0.039038606
0.1716813 0.007553661 0.043102615 5.2550855e-05 4.7989807e-10 4.7989807e-10 4.7989807e-10 4.7989807e-10
4.7989807e-10 4.7989807e-10 4.7989807e-10 4.7989807e-10 4.7989807e-10 4.7989807e-10 4.7989807e-10 4.7989807e-10
4.7989807e-10 4.7989807e-10 4.7989807e-10 4.7989807e-10 4.7989807e-10 4.7989807e-10 4.7989807e-10 4.7989807e-10
4.7989807e-10 4.7989807e-10 4.7989807e-10 4.7989807e-10 4.7989807e-10 4.7989807e-10 4.7989807e-10 4.7989807e-10
4.7989807e-10 4.7989807e-10 4.7989807e-10 4.7989807e-10 4.7989807e-10 4.7989807e-10 4.7989807e-10 4.7989807e-10
4.7989807e-10 4.7989807e-10 4.7989807e-10 4.7989807e-10 4.7989807e-10 4.7989807e-10 4.7989807e-10 4.7989807e-10
4.7989807e-10 4.7989807e-10 4.7989807e-10 4.7989807e-10 4.7989807e-10 4.7989807e-10 4.7989807e-10 4.7989807e-10
4.7989807e-10 4.7989807e-10 4.7989807e-10 4.7989807e-10 4.7989807e-10 4.7989807e-10 4.7989807e-10 4.7989807e-10
4.7989807e-10 4.7989807e-10 4.7989807e-10 4.7989807e-10 4.7989807e-10 4.7989807e-10 4.7989807e-10 4.7989807e-10
4.7989807e-10 4.7989807e-10 4.7989807e-10 4.7989807e-10 4.7989807e-10 4.7989807e-10 4.7989807e-10 4.7989807e-10
4.7989807e-10 4.7989807e-10 4.7989807e-10 4.7989807e-10 4.7989807e-10 4.7989807e-10 4.7989807e-10 4.7989807e-10
4.7989807e-10 4.7989807e-10 4.7989807e-10 4.7989807e-10 4.7989807e-10 4.7989807e-10 4.7989807e-10 4.7989807e-10
4.7989807e-10 4.7989807e-10 4.7989807e-10 4.7989807e-10 4.7989807e-10 4.7989807e-10 4.7989807e-10 4.7989807e-10
4.7989807e-10 4.7989807e-10 4.7989807e-10 4.7989807e-10 4.7989807e-10 4.7989807e-10 4.7989807e-10 4.7989807e-10
4.7989807e-10 4.7989807e-10 4.7989807e-10 4.7989807e-10 4.7989807e-10 4.7989807e-10 4.7989807e-10 4.7989807e-10
0.0070317574 0.018720059 0.007243769 0.0926298 0.03571784
00000000: b681 4a3c a6dd d83a 3e03 3d3c 0764 d837
00000010: 22bb 063f c365 dc3d d24a 343e f2e6 1f3d
00000020: 39cd 2f3e b384 f73b 5e8c 303d 0d6a 5c38
00000030: d3e9 0330 d3e9 0330 d3e9 0330 d3e9 0330
00000040: d3e9 0330 d3e9 0330 d3e9 0330 d3e9 0330
00000050: d3e9 0330 d3e9 0330 d3e9 0330 d3e9 0330
00000060: d3e9 0330 d3e9 0330 d3e9 0330 d3e9 0330
00000070: d3e9 0330 d3e9 0330 d3e9 0330 d3e9 0330
00000080: d3e9 0330 d3e9 0330 d3e9 0330 d3e9 0330
00000090: d3e9 0330 d3e9 0330 d3e9 0330 d3e9 0330
000000a0: d3e9 0330 d3e9 0330 d3e9 0330 d3e9 0330
000000b0: d3e9 0330 d3e9 0330 d3e9 0330 d3e9 0330
000000c0: d3e9 0330 d3e9 0330 d3e9 0330 d3e9 0330
000000d0: d3e9 0330 d3e9 0330 d3e9 0330 d3e9 0330
000000e0: d3e9 0330 d3e9 0330 d3e9 0330 d3e9 0330
000000f0: d3e9 0330 d3e9 0330 d3e9 0330 d3e9 0330
00000100: d3e9 0330 d3e9 0330 d3e9 0330 d3e9 0330
00000110: d3e9 0330 d3e9 0330 d3e9 0330 d3e9 0330
00000120: d3e9 0330 d3e9 0330 d3e9 0330 d3e9 0330
00000130: d3e9 0330 d3e9 0330 d3e9 0330 d3e9 0330
00000140: d3e9 0330 d3e9 0330 d3e9 0330 d3e9 0330
00000150: d3e9 0330 d3e9 0330 d3e9 0330 d3e9 0330
00000160: d3e9 0330 d3e9 0330 d3e9 0330 d3e9 0330
00000170: d3e9 0330 d3e9 0330 d3e9 0330 d3e9 0330
00000180: d3e9 0330 d3e9 0330 d3e9 0330 d3e9 0330
00000190: d3e9 0330 d3e9 0330 d3e9 0330 d3e9 0330
000001a0: d3e9 0330 d3e9 0330 d3e9 0330 d3e9 0330
000001b0: d3e9 0330 d3e9 0330 d3e9 0330 d3e9 0330
000001c0: d3e9 0330 d3e9 0330 d3e9 0330 d3e9 0330
000001d0: d3e9 0330 d3e9 0330 d3e9 0330 d3e9 0330
000001e0: d3e9 0330 d3e9 0330 d3e9 0330 d3e9 0330
000001f0: d3e9 0330 d3e9 0330 d3e9 0330 d3e9 0330
00000200: a86a e63b cf5a 993c 235d ed3b b1b4 bd3d
00000210: df4c 123d
