log/logs/self_model.npz.pth (torch, 142942 bytes, 10 tensors)

mu f4 [133]
000000 00 00 00 00 00 00 00 00 00 00 00 00 00 00 00 00
       0.0 0.0 0.0 0.0
000010 00 00 00 00 00 00 00 00 00 00 00 00 00 00 00 00
       0.0 0.0 0.0 0.0
000020 00 00 00 00 00 00 00 00 00 00 00 00 00 00 00 00
       0.0 0.0 0.0 0.0
000030 00 00 00 00 00 00 00 00 00 00 00 00 00 00 00 00
       0.0 0.0 0.0 0.0
000040 00 00 00 00 00 00 00 00 00 00 00 00 00 00 00 00
       0.0 0.0 0.0 0.0
000050 00 00 00 00 00 00 00 00 00 00 00 00 00 00 00 00
       0.0 0.0 0.0 0.0
000060 00 00 00 00 00 00 00 00 00 00 00 00 00 00 00 00
       0.0 0.0 0.0 0.0
000070 00 00 00 00 00 00 00 00 00 00 00 00 00 00 00 00
       0.0 0.0 0.0 0.0
000080 00 00 00 00 00 00 00 00 00 00 00 00 00 00 00 00
       0.0 0.0 0.0 0.0
000090 00 00 00 00 00 00 00 00 00 00 00 00 00 00 00 00
       0.0 0.0 0.0 0.0
0000a0 00 00 00 00 00 00 00 00 00 00 00 00 00 00 00 00
       0.0 0.0 0.0 0.0
0000b0 00 00 00 00 00 00 00 00 00 00 00 00 00 00 00 00
       0.0 0.0 0.0 0.0
0000c0 00 00 00 00 00 00 00 00 00 00 00 00 00 00 00 00
       0.0 0.0 0.0 0.0
0000d0 00 00 00 00 00 00 00 00 00 00 00 00 00 00 00 00
       0.0 0.0 0.0 0.0
0000e0 00 00 00 00 00 00 00 00 00 00 00 00 00 00 00 00
       0.0 0.0 0.0 0.0
0000f0 00 00 00 00 00 00 00 00 00 00 00 00 00 00 00 00
       0.0 0.0 0.0 0.0
000100 00 00 00 00 00 00 00 00 00 00 00 00 00 00 00 00
       0.0 0.0 0.0 0.0
000110 00 00 00 00 00 00 00 00 00 00 00 00 00 00 00 00
       0.0 0.0 0.0 0.0
000120 00 00 00 00 00 00 00 00 00 00 00 00 00 00 00 00
       0.0 0.0 0.0 0.0
000130 00 00 00 00 00 00 00 00 00 00 00 00 00 00 00 00
       0.0 0.0 0.0 0.0
000140 00 00 00 00 00 00 00 00 00 00 00 00 00 00 00 00
       0.0 0.0 0.0 0.0
000150 00 00 00 00 00 00 00 00 00 00 00 00 00 00 00 00
       0.0 0.0 0.0 0.0
000160 00 00 00 00 00 00 00 00 00 00 00 00 00 00 00 00
       0.0 0.0 0.0 0.0
000170 00 00 00 00 00 00 00 00 00 00 00 00 00 00 00 00
       0.0 0.0 0.0 0.0
000180 00 00 00 00 00 00 00 00 00 00 00 00 00 00 00 00
       0.0 0.0 0.0 0.0
000190 00 00 00 00 00 00 00 00 00 00 00 00 00 00 00 00
       0.0 0.0 0.0 0.0
0001a0 00 00 00 00 00 00 00 00 00 00 00 00 00 00 00 00
       0.0 0.0 0.0 0.0
0001b0 00 00 00 00 00 00 00 00 00 00 00 00 00 00 00 00
       0.0 0.0 0.0 0.0
0001c0 00 00 00 00 00 00 00 00 00 00 00 00 00 00 00 00
       0.0 0.0 0.0 0.0
0001d0 00 00 00 00 00 00 00 00 00 00 00 00 00 00 00 00
       0.0 0.0 0.0 0.0
0001e0 00 00 00 00 00 00 00 00 00 00 00 00 00 00 00 00
       0.0 0.0 0.0 0.0
0001f0 00 00 00 00 00 00 00 00 00 00 00 00 00 00 00 00
       0.0 0.0 0.0 0.0
000200 00 00 00 00 00 00 00 00 00 00 00 00 00 00 00 00
       0.0 0.0 0.0 0.0
000210 00 00 00 00
       0.0

s2 f4 [133]
000000 00 00 80 3f 00 00 80 3f 00 00 80 3f 00 00 80 3f
       1.0 1.0 1.0 1.0
000010 00 00 80 3f 00 00 80 3f 00 00 80 3f 00 00 80 3f
       1.0 1.0 1.0 1.0
000020 00 00 80 3f 00 00 80 3f 00 00 80 3f 00 00 80 3f
       1.0 1.0 1.0 1.0
000030 00 00 80 3f 00 00 80 3f 00 00 80 3f 00 00 80 3f
       1.0 1.0 1.0 1.0
000040 00 00 80 3f 00 00 80 3f 00 00 80 3f 00 00 80 3f
       1.0 1.0 1.0 1.0
000050 00 00 80 3f 00 00 80 3f 00 00 80 3f 00 00 80 3f
       1.0 1.0 1.0 1.0
000060 00 00 80 3f 00 00 80 3f 00 00 80 3f 00 00 80 3f
       1.0 1.0 1.0 1.0
000070 00 00 80 3f 00 00 80 3f 00 00 80 3f 00 00 80 3f
       1.0 1.0 1.0 1.0
000080 00 00 80 3f 00 00 80 3f 00 00 80 3f 00 00 80 3f
       1.0 1.0 1.0 1.0
000090 00 00 80 3f 00 00 80 3f 00 00 80 3f 00 00 80 3f
       1.0 1.0 1.0 1.0
0000a0 00 00 80 3f 00 00 80 3f 00 00 80 3f 00 00 80 3f
       1.0 1.0 1.0 1.0
0000b0 00 00 80 3f 00 00 80 3f 00 00 80 3f 00 00 80 3f
       1.0 1.0 1.0 1.0
0000c0 00 00 80 3f 00 00 80 3f 00 00 80 3f 00 00 80 3f
       1.0 1.0 1.0 1.0
0000d0 00 00 80 3f 00 00 80 3f 00 00 80 3f 00 00 80 3f
       1.0 1.0 1.0 1.0
0000e0 00 00 80 3f 00 00 80 3f 00 00 80 3f 00 00 80 3f
       1.0 1.0 1.0 1.0
0000f0 00 00 80 3f 00 00 80 3f 00 00 80 3f 00 00 80 3f
       1.0 1.0 1.0 1.0
000100 00 00 80 3f 00 00 80 3f 00 00 80 3f 00 00 80 3f
       1.0 1.0 1.0 1.0
000110 00 00 80 3f 00 00 80 3f 00 00 80 3f 00 00 80 3f
       1.0 1.0 1.0 1.0
000120 00 00 80 3f 00 00 80 3f 00 00 80 3f 00 00 80 3f
       1.0 1.0 1.0 1.0
000130 00 00 80 3f 00 00 80 3f 00 00 80 3f 00 00 80 3f
       1.0 1.0 1.0 1.0
000140 00 00 80 3f 00 00 80 3f 00 00 80 3f 00 00 80 3f
       1.0 1.0 1.0 1.0
000150 00 00 80 3f 00 00 80 3f 00 00 80 3f 00 00 80 3f
       1.0 1.0 1.0 1.0
000160 00 00 80 3f 00 00 80 3f 00 00 80 3f 00 00 80 3f
       1.0 1.0 1.0 1.0
000170 00 00 80 3f 00 00 80 3f 00 00 80 3f 00 00 80 3f
       1.0 1.0 1.0 1.0
000180 00 00 80 3f 00 00 80 3f 00 00 80 3f 00 00 80 3f
       1.0 1.0 1.0 1.0
000190 00 00 80 3f 00 00 80 3f 00 00 80 3f 00 00 80 3f
       1.0 1.0 1.0 1.0
0001a0 00 00 80 3f 00 00 80 3f 00 00 80 3f 00 00 80 3f
       1.0 1.0 1.0 1.0
0001b0 00 00 80 3f 00 00 80 3f 00 00 80 3f 00 00 80 3f
       1.0 1.0 1.0 1.0
0001c0 00 00 80 3f 00 00 80 3f 00 00 80 3f 00 00 80 3f
       1.0 1.0 1.0 1.0
0001d0 00 00 80 3f 00 00 80 3f 00 00 80 3f 00 00 80 3f
       1.0 1.0 1.0 1.0
0001e0 00 00 80 3f 00 00 80 3f 00 00 80 3f 00 00 80 3f
       1.0 1.0 1.0 1.0
0001f0 00 00 80 3f 00 00 80 3f 00 00 80 3f 00 00 80 3f
       1.0 1.0 1.0 1.0
000200 00 00 80 3f 00 00 80 3f 00 00 80 3f 00 00 80 3f
       1.0 1.0 1.0 1.0
000210 00 00 80 3f
       1.0

base.0.weight f4 [128, 133]
000000 bb 34 94 3d 20 ed f6 bb 31 28 81 3d 90 a9 9a bb
       0.0723662 -0.0075355917 0.06306494 -0.0047199205
000010 e4 28 13 3d e5 4b 84 3d 09 53 0d bd 44 9e 89 bc
       0.03592767 0.06459788 -0.034503017 -0.0167991
000020 4a 01 36 3d 0b c4 ab 3d 98 d5 4a bc 10 1c b6 bb
       0.044434823 0.083870016 -0.012380026 -0.0055575445
000030 82 f1 56 3d 40 d2 c9 3b 22 d5 8d bd 9c 87 aa 3c
       0.052476414 0.006159097 -0.069254175 0.020816617
000040 70 bd c0 3b c0 10 23 3b 43 73 8f bd b0 fd c6 3b
       0.0058819577 0.002488181 -0.07004406 0.0060727224
000050 00 d6 a7 3c 50 ef 78 bd 00 04 00 ba e5 07 b1 3d
       0.020487785 -0.0607751 -0.00048834085 0.08644084
000060 b3 1b aa 3d e0 18 45 3c f9 56 11 bd 68 8f 33 bc
       0.083060645 0.012029856 -0.035483334 -0.010959484
000070 1d 5d ae 3d c0 66 ed ba 81 c9 9c 3d 56 77 3f 3d
       0.08513854 -0.0018112287 0.07655621 0.046744667
000080 08 78 8e bd b2 a6 07 3d 90 ec 3f 3c ce 5b 3c 3d
       -0.06956488 0.033117957 0.011714116 0.04598599
000090 0c 30 85 bd ae 33 48 3d af 68 41 bd a2 a0 3c 3d
       -0.06503305 0.04887741 -0.047218975 0.04605163
0000a0 87 9a 9b 3d dc 70 b7 3c 0e b6 41 3d 95 3b 87 bd
       0.07597833 0.022392683 0.04729276 -0.06603161
0000b0 18 81 76 3c d2 1b 19 bd 88 0a bd bc d6 52 09 3d
       0.015045427 -0.037380047 -0.02307631 0.033526264
0000c0 ba 46 a9 bd 8d fd 2f bd 11 bc aa bd 60 7f e0 3c
       -0.08265443 -0.042966414 -0.08336652 0.027404487
0000d0 30 c9 a9 3c 36 88 88 bd 30 04 f1 3b d1 b8 ad 3d
       0.020725816 -0.06666605 0.0073552355 0.084825166
0000e0 5a bc 21 3d 83 1e 8b 3d d8 5c 0a 3c d6 6c 4a 3d
       0.039486267 0.06792929 0.008444987 0.0494202
0000f0 d6 42 78 bd 58 e2 18 bc da 49 4c 3d f0 42 81 bd
       -0.060610615 -0.009331308 0.049875118 -0.063115954
000100 fe 99 33 3d 60 63 f0 bb 50 47 d4 bb ec 90 22 bd
       0.04384803 -0.007336065 -0.0064782277 -0.03968899
000110 62 1e 18 3d 75 f9 2d bd 00 ad 54 bc 80 06 4c 3b
       0.03713835 -0.04247423 -0.0129807 0.0031131804
000120 24 a5 76 bd 86 f6 74 3d 9d a3 87 bd c9 d6 2b bd
       -0.060216084 0.059805416 -0.06623004 -0.041952882
000130 20 05 06 bb eb b1 91 bd 1c d6 33 bd 2a f1 4b 3d
       -0.0020449832 -0.07114013 -0.043905362 0.04979054
000140 de 50 c7 bc 22 a0 6a bd 84 d4 b5 bc b8 00 70 3c
       -0.024330553 -0.05728162 -0.022196062 0.014648609
000150 80 7b d9 bb c6 b2 50 3d a8 42 9d 3c bb 04 85 3d
       -0.006637037 0.05095174 0.019196823 0.06495043
000160 00 06 3f bd 17 5c ae bd 63 f2 81 bd 77 e6 46 bd
       -0.04663658 -0.085136585 -0.0634506 -0.048559632
000170 47 4e 89 3d ef ee 44 bd b8 9b be bc c6 4a 2b 3d
       0.06704383 -0.048079427 -0.023267612 0.041819356
000180 f1 ca a8 bd 06 68 25 3d 27 cd 18 bd 78 7e 80 3c
       -0.08241833 0.040382408 -0.037305024 0.015685305
000190 e5 bd 97 3d 2d fe 8f 3d ea 96 5b 3d 65 3f a7 3d
       0.074092664 0.07030902 0.05361072 0.081663884
0001a0 9c ea ed bc 6e 40 65 3d 82 5f 45 bd 7c 6c 00 3d
       -0.029042535 0.055969648 -0.048186786 0.03135346
0001b0 bf cc 98 bd 7e 0a 49 3d 77 1e 69 bd e8 de 11 bc
       -0.07460927 0.04908227 -0.05691382 -0.008903243
0001c0 c1 f8 ab 3d bc 91 32 bd 00 30 ad 3a 81 ae 9b bd
       0.083970554 -0.043596014 0.0013213158 -0.07601643
0001d0 40 28 76 bd 28 6e f5 bc 86 bb 28 3d 48 b4 f2 3c
       -0.06009698 -0.029959753 0.04119446 0.02962698
0001e0 3b 8b 12 bd 0a e1 6f 3d 4c 86 f6 3c e0 9e 0c 3b
       -0.03577731 0.058564223 0.030093335 0.0021457002
0001f0 78 d8 22 bc ea 08 60 3d 04 18 84 bd f2 a3 1e 3d
       -0.0099393055 0.054696 -0.06449893 0.03873057
000200 68 68 22 3c 87 c4 4f bd a0 60 09 3b 70 78 7a 3c
       0.009912588 -0.050724532 0.0020962134 0.015287504
000210 88 ee 31 bd 52 1d 2c 3d d2 c0 6f bd b0 7b bd 3c
       -0.04344037 0.04202015 -0.058533497 0.023130268
000220 00 00 c6 39 bf c8 a2 bd 86 55 69 bd 10 7f ca bb
       0.00037765503 -0.079484455 -0.056966327 -0.006179698
000230 a9 91 a6 bd 80 4d e5 bc 35 f0 aa 3d ba 98 47 3d
       -0.08133251 -0.027991056 0.08346597 0.048729636
000240 9b 59 20 bd a1 fc a1 bd f8 05 53 bd 1c 94 e4 3c
       -0.039147954 -0.07909513 -0.051519364 0.027902655
000250 b5 17 96 3d d0 9d 33 bc 50 83 e4 3c 50 77 fb 3b
       0.073287405 -0.010962918 0.027894646 0.0076741353
000260 a6 20 08 3d d8 dc 5e bc 8f 3d 4f bd 37 72 7c bd
       0.03323426 -0.013602458 -0.050595816 -0.06163236
000270 bd 63 33 bd 8a fa d0 bc e0 87 70 bb 6a f7 22 bd
       -0.04379629 -0.025510091 -0.0036702082 -0.039786734
000280 82 69 4b 3d a6 ce 13 3d 6d 1c 84 3d 72 c3 72 3d
       0.049661167 0.036085747 0.06450734 0.059268422
000290 f2 1b 50 3d 16 31 d9 bc aa 24 3a 3d 08 ce a9 bd
       0.0508079 -0.026512664 0.04544512 -0.082912505
0002a0 f2 33 18 bd 70 9f 78 bc 9f 7e 99 3d 19 31 8d 3d
       -0.037158914 -0.015174732 0.07494854 0.0689413
0002b0 65 9c 89 3d f7 c0 91 3d cc c6 41 bd ad f8 94 3d
       0.06719283 0.07116883 -0.047308728 0.07273994
0002c0 fd b6 91 3d da 17 09 bd 98 c9 77 bd cc b0 a3 bd
       0.0711498 -0.033470012 -0.06049499 -0.07992706
0002d0 a0 a7 17 3b b0 88 ec 3b 98 be b3 bc d7 bd 89 3d
       0.0023140684 0.007218443 -0.021941468 0.06725662
0002e0 14 81 10 bd 4c 63 b2 bc 08 e2 e3 bc f4 5c c9 3c
       -0.03527935 -0.021775864 -0.027817741 0.024580456
0002f0 a4 df b5 3c de 0f 10 3d 58 1f 45 3c 80 06 b9 3b
       0.022201367 0.035171382 0.012031399 0.005646527
000300 80 6f 96 ba 9a 3e 52 3d ac b9 1a 3d 80 d4 02 3c
       -0.0011477321 0.051329233 0.037774727 0.007985234
000310 d8 8b 87 bd 42 cd 80 bd 5c aa 4b bd 10 bc 2c 3c
       -0.0661847 -0.0628915 -0.049723014 0.0105428845
000320 60 1d 7f 3b 6a f7 8a bd 30 5d 68 3c e6 2d 31 3d
       0.003892742 -0.06785472 0.014182374 0.043256663
000330 ca 68 75 3d df 5c b1 3d 06 0f 0e 3d f8 9c 9a bc
       0.059914388 0.08660292 0.034682296 -0.018873677
000340 d0 5f 7d bd e5 86 ae 3d 40 02 6d bb 33 da 44 bd
       -0.061858952 0.08521823 -0.0036164671 -0.048059653
000350 d4 65 ed 3c ff c2 1e bd f5 96 65 bd 82 aa 28 3d
       0.02897922 -0.03876018 -0.056052167 0.041178234
000360 32 8f 3d 3d a4 4d ef 3c e2 e3 1c 3d da aa 39 3d
       0.04627914 0.029211827 0.038303263 0.045328952
000370 22 01 54 3d 9d 23 a3 3d 50 7d 8f bd 3b 52 8a bd
       0.051758893 0.07965777 -0.07006323 -0.067539655
000380 50 64 0e bc 80 47 d3 3c 78 e1 62 3c da 65 2d 3d
       -0.008690909 0.02579093 0.013847701 0.04233346
000390 fe be 58 3d 46 70 11 3d 99 48 13 bd 22 bb 7d 3d
       0.05291652 0.035507463 -0.035957906 0.061946042
0003a0 ce 36 a4 bd c0 e5 bd 3b 76 01 02 3d c5 ab 84 3d
       -0.08018266 0.0057952106 0.031739675 0.06478075
0003b0 bd 3e a8 3d d0 aa 00 bc e8 97 28 3c a0 b3 2e 3b
       0.082150914 -0.007853225 0.0102901235 0.0026657358
0003c0 8e b7 6a bd 4e 43 16 3d d0 ef aa bc 10 31 7e 3c
       -0.057303958 0.03668528 -0.020866305 0.015514627
0003d0 0f 61 a7 3d 58 82 fa 3c 66 93 0d bd 89 51 a1 3d
       0.08172809 0.03057973 -0.0345644 0.0787688
0003e0 b1 4d 81 bd f4 5c 56 bd 99 c6 8f bd 70 6f 63 3c
       -0.063136466 -0.05233474 -0.07020301 0.013881549
0003f0 78 94 02 3d 8c c7 8e bc 4e c0 9b bd a8 ea 32 3c
       0.031879872 -0.017429136 -0.076050386 0.010920204

base.0.bias f4 [128]
000000 e0 bf e3 bb e0 58 ce 3b fc e9 9a bd 1e f9 43 3d
       -0.0069503635 0.006297216 -0.0756416 0.047845
000010 86 ba 8c bd bf 81 ad 3d 18 60 5f bd f8 a0 9b 3c
       -0.06871514 0.08472013 -0.054535 0.018997654
000020 91 b8 a8 3d b2 b2 2d 3d c7 7e 91 3d f0 07 a3 3c
       0.08238328 0.042406745 0.07104259 0.019901246
000030 b8 34 26 bd 7c f2 86 bd 30 78 bf 3b 6b 08 90 3d
       -0.04057762 -0.06589219 0.005843185 0.070328556
000040 e9 a6 92 3d a7 2a 9f bd 2d 31 ac 3d e0 72 b1 bc
       0.07160742 -0.07771807 0.08407817 -0.021661222
000050 08 ac 0f bd 9b 07 90 3d 44 de 08 3d 85 f4 35 bd
       -0.03507617 0.07032701 0.033415094 -0.044422645
000060 00 5b 58 3a 51 e8 9b 3d cf f6 8d 3d 62 33 7c 3d
       0.0008253306 0.0761267 0.06931841 0.06157244
000070 a3 c0 89 bd 04 d6 c3 3c f0 3a 51 3c d0 3f 8b bd
       -0.06726196 0.023905762 0.012770399 -0.06799281
000080 4a 62 66 3d 3e 00 15 bd f5 e0 a2 bd 6a 65 38 3d
       0.05624608 -0.036377184 -0.079530634 0.04501859
000090 e4 67 d0 bc 0c 84 6d bd 26 32 7a bd 54 7e 82 bc
       -0.025440164 -0.057987258 -0.06108298 -0.015929379
0000a0 f6 a5 20 3d de bb 16 bd 82 a7 7b bd 2c 90 e9 bc
       0.039220773 -0.036800258 -0.061439045 -0.02851113
0000b0 a4 82 9d bd fb 6e a5 bd 54 e6 58 bd 78 8f 32 3c
       -0.07690933 -0.080778085 -0.052954033 0.010898463
0000c0 32 22 5e 3d d1 09 87 bd 41 90 8e 3d 4f a5 8b bd
       0.05423183 -0.06593669 0.06961108 -0.068186395
0000d0 84 e9 8c bd 9b 18 5b bd 74 c9 95 bc 80 35 00 3c
       -0.06880477 -0.053490262 -0.018284537 0.007825255
0000e0 80 06 1a 3a fc f1 80 bc d5 b1 85 bd f7 b1 a9 3d
       0.00058756024 -0.015740387 -0.065280594 0.08285897
0000f0 70 57 c5 bc c2 86 33 3d bc 37 1a bd c4 14 94 bc
       -0.024089545 0.043829687 -0.03765081 -0.018076308
000100 0c fc b8 bc 92 27 10 bd 20 36 14 3b 31 a3 7e bd
       -0.022581123 -0.035193987 0.0022615269 -0.06216735
000110 cf 94 9d 3d 38 b6 80 bc de 00 24 bd ee 94 0b bd
       0.076943986 -0.015711889 -0.04003989 -0.034077577
000120 d0 1e 1e bc 80 34 c8 3a 70 91 f3 bb b3 27 9b 3d
       -0.009650901 0.0015274435 -0.007433109 0.075759314
000130 4d 41 16 bd 89 fc 9c bd ca 75 69 3d f2 f5 0a 3d
       -0.03668337 -0.07665355 0.056997098 0.033925958
000140 37 63 8f 3d 7f cd 3a bd 98 2e 99 bc 27 fc a5 3d
       0.070013456 -0.045606133 -0.018698975 0.08104735
000150 8e ae 95 bd b2 e9 d9 bc 90 b3 d3 3c c0 57 10 bc
       -0.07308684 -0.026600692 0.025842458 -0.008809984
000160 80 44 4c bb 14 cc 96 bc 77 57 af 3d 4f 06 97 bd
       -0.003116876 -0.018407859 0.085616045 -0.0737425
000170 84 f8 8e 3c 80 dd 21 3a e4 85 8d bc 4a 99 7e 3d
       0.017452486 0.00061746687 -0.017275758 0.062157907
000180 80 13 5a 3b d8 25 f7 3c d6 62 cb bc 96 99 16 3d
       0.0033275783 0.030169412 -0.024827402 0.036767565
000190 01 e5 0d bd 3a c9 23 3d 17 c9 8c bd a0 2b 32 3c
       -0.034642223 0.039986826 -0.06874292 0.010874659
0001a0 00 b2 83 bc 00 16 bc 3a d8 19 8e bd 18 0b 2c bd
       -0.016076088 0.0014349818 -0.06938523 -0.042002767
0001b0 7a d4 4c 3d 16 4d 54 bd c1 4c 48 bd aa 8a 3f 3d
       0.05000732 -0.051831327 -0.048901323 0.0467631
0001c0 89 fb 20 bd 20 a3 ce bc 98 e3 d7 bc 53 d9 89 3d
       -0.039302383 -0.025224268 -0.026353642 0.067309044
0001d0 7e 7e 98 bd ac 03 15 3d 41 50 95 3d 99 b2 08 bd
       -0.074460015 0.036380455 0.07290698 -0.03337345
0001e0 f0 b1 9a 3c cc a3 77 bd e6 49 95 bd a4 fc 00 3d
       0.018883675 -0.060458943 -0.07289486 0.031490937
0001f0 42 62 2e bd de 16 66 3d 49 f5 a9 3d 16 52 41 bd
       -0.042574175 0.05617415 0.082987376 -0.047197424

base.1.weight f4 [128]
000000 00 00 80 3f 00 00 80 3f 00 00 80 3f 00 00 80 3f
       1.0 1.0 1.0 1.0
000010 00 00 80 3f 00 00 80 3f 00 00 80 3f 00 00 80 3f
       1.0 1.0 1.0 1.0
000020 00 00 80 3f 00 00 80 3f 00 00 80 3f 00 00 80 3f
       1.0 1.0 1.0 1.0
000030 00 00 80 3f 00 00 80 3f 00 00 80 3f 00 00 80 3f
       1.0 1.0 1.0 1.0
000040 00 00 80 3f 00 00 80 3f 00 00 80 3f 00 00 80 3f
       1.0 1.0 1.0 1.0
000050 00 00 80 3f 00 00 80 3f 00 00 80 3f 00 00 80 3f
       1.0 1.0 1.0 1.0
000060 00 00 80 3f 00 00 80 3f 00 00 80 3f 00 00 80 3f
       1.0 1.0 1.0 1.0
000070 00 00 80 3f 00 00 80 3f 00 00 80 3f 00 00 80 3f
       1.0 1.0 1.0 1.0
000080 00 00 80 3f 00 00 80 3f 00 00 80 3f 00 00 80 3f
       1.0 1.0 1.0 1.0
000090 00 00 80 3f 00 00 80 3f 00 00 80 3f 00 00 80 3f
       1.0 1.0 1.0 1.0
0000a0 00 00 80 3f 00 00 80 3f 00 00 80 3f 00 00 80 3f
       1.0 1.0 1.0 1.0
0000b0 00 00 80 3f 00 00 80 3f 00 00 80 3f 00 00 80 3f
       1.0 1.0 1.0 1.0
0000c0 00 00 80 3f 00 00 80 3f 00 00 80 3f 00 00 80 3f
       1.0 1.0 1.0 1.0
0000d0 00 00 80 3f 00 00 80 3f 00 00 80 3f 00 00 80 3f
       1.0 1.0 1.0 1.0
0000e0 00 00 80 3f 00 00 80 3f 00 00 80 3f 00 00 80 3f
       1.0 1.0 1.0 1.0
0000f0 00 00 80 3f 00 00 80 3f 00 00 80 3f 00 00 80 3f
       1.0 1.0 1.0 1.0
000100 00 00 80 3f 00 00 80 3f 00 00 80 3f 00 00 80 3f
       1.0 1.0 1.0 1.0
000110 00 00 80 3f 00 00 80 3f 00 00 80 3f 00 00 80 3f
       1.0 1.0 1.0 1.0
000120 00 00 80 3f 00 00 80 3f 00 00 80 3f 00 00 80 3f
       1.0 1.0 1.0 1.0
000130 00 00 80 3f 00 00 80 3f 00 00 80 3f 00 00 80 3f
       1.0 1.0 1.0 1.0
000140 00 00 80 3f 00 00 80 3f 00 00 80 3f 00 00 80 3f
       1.0 1.0 1.0 1.0
000150 00 00 80 3f 00 00 80 3f 00 00 80 3f 00 00 80 3f
       1.0 1.0 1.0 1.0
000160 00 00 80 3f 00 00 80 3f 00 00 80 3f 00 00 80 3f
       1.0 1.0 1.0 1.0
000170 00 00 80 3f 00 00 80 3f 00 00 80 3f 00 00 80 3f
       1.0 1.0 1.0 1.0
000180 00 00 80 3f 00 00 80 3f 00 00 80 3f 00 00 80 3f
       1.0 1.0 1.0 1.0
000190 00 00 80 3f 00 00 80 3f 00 00 80 3f 00 00 80 3f
       1.0 1.0 1.0 1.0
0001a0 00 00 80 3f 00 00 80 3f 00 00 80 3f 00 00 80 3f
       1.0 1.0 1.0 1.0
0001b0 00 00 80 3f 00 00 80 3f 00 00 80 3f 00 00 80 3f
       1.0 1.0 1.0 1.0
0001c0 00 00 80 3f 00 00 80 3f 00 00 80 3f 00 00 80 3f
       1.0 1.0 1.0 1.0
0001d0 00 00 80 3f 00 00 80 3f 00 00 80 3f 00 00 80 3f
       1.0 1.0 1.0 1.0
0001e0 00 00 80 3f 00 00 80 3f 00 00 80 3f 00 00 80 3f
       1.0 1.0 1.0 1.0
0001f0 00 00 80 3f 00 00 80 3f 00 00 80 3f 00 00 80 3f
       1.0 1.0 1.0 1.0

base.1.bias f4 [128]
000000 00 00 00 00 00 00 00 00 00 00 00 00 00 00 00 00
       0.0 0.0 0.0 0.0
000010 00 00 00 00 00 00 00 00 00 00 00 00 00 00 00 00
       0.0 0.0 0.0 0.0
000020 00 00 00 00 00 00 00 00 00 00 00 00 00 00 00 00
       0.0 0.0 0.0 0.0
000030 00 00 00 00 00 00 00 00 00 00 00 00 00 00 00 00
       0.0 0.0 0.0 0.0
000040 00 00 00 00 00 00 00 00 00 00 00 00 00 00 00 00
       0.0 0.0 0.0 0.0
000050 00 00 00 00 00 00 00 00 00 00 00 00 00 00 00 00
       0.0 0.0 0.0 0.0
000060 00 00 00 00 00 00 00 00 00 00 00 00 00 00 00 00
       0.0 0.0 0.0 0.0
000070 00 00 00 00 00 00 00 00 00 00 00 00 00 00 00 00
       0.0 0.0 0.0 0.0
000080 00 00 00 00 00 00 00 00 00 00 00 00 00 00 00 00
       0.0 0.0 0.0 0.0
000090 00 00 00 00 00 00 00 00 00 00 00 00 00 00 00 00
       0.0 0.0 0.0 0.0
0000a0 00 00 00 00 00 00 00 00 00 00 00 00 00 00 00 00
       0.0 0.0 0.0 0.0
0000b0 00 00 00 00 00 00 00 00 00 00 00 00 00 00 00 00
       0.0 0.0 0.0 0.0
0000c0 00 00 00 00 00 00 00 00 00 00 00 00 00 00 00 00
       0.0 0.0 0.0 0.0
0000d0 00 00 00 00 00 00 00 00 00 00 00 00 00 00 00 00
       0.0 0.0 0.0 0.0
0000e0 00 00 00 00 00 00 00 00 00 00 00 00 00 00 00 00
       0.0 0.0 0.0 0.0
0000f0 00 00 00 00 00 00 00 00 00 00 00 00 00 00 00 00
       0.0 0.0 0.0 0.0
000100 00 00 00 00 00 00 00 00 00 00 00 00 00 00 00 00
       0.0 0.0 0.0 0.0
000110 00 00 00 00 00 00 00 00 00 00 00 00 00 00 00 00
       0.0 0.0 0.0 0.0
000120 00 00 00 00 00 00 00 00 00 00 00 00 00 00 00 00
       0.0 0.0 0.0 0.0
000130 00 00 00 00 00 00 00 00 00 00 00 00 00 00 00 00
       0.0 0.0 0.0 0.0
000140 00 00 00 00 00 00 00 00 00 00 00 00 00 00 00 00
       0.0 0.0 0.0 0.0
000150 00 00 00 00 00 00 00 00 00 00 00 00 00 00 00 00
       0.0 0.0 0.0 0.0
000160 00 00 00 00 00 00 00 00 00 00 00 00 00 00 00 00
       0.0 0.0 0.0 0.0
000170 00 00 00 00 00 00 00 00 00 00 00 00 00 00 00 00
       0.0 0.0 0.0 0.0
000180 00 00 00 00 00 00 00 00 00 00 00 00 00 00 00 00
       0.0 0.0 0.0 0.0
000190 00 00 00 00 00 00 00 00 00 00 00 00 00 00 00 00
       0.0 0.0 0.0 0.0
0001a0 00 00 00 00 00 00 00 00 00 00 00 00 00 00 00 00
       0.0 0.0 0.0 0.0
0001b0 00 00 00 00 00 00 00 00 00 00 00 00 00 00 00 00
       0.0 0.0 0.0 0.0
0001c0 00 00 00 00 00 00 00 00 00 00 00 00 00 00 00 00
       0.0 0.0 0.0 0.0
0001d0 00 00 00 00 00 00 00 00 00 00 00 00 00 00 00 00
       0.0 0.0 0.0 0.0
0001e0 00 00 00 00 00 00 00 00 00 00 00 00 00 00 00 00
       0.0 0.0 0.0 0.0
0001f0 00 00 00 00 00 00 00 00 00 00 00 00 00 00 00 00
       0.0 0.0 0.0 0.0

output_head.weight f4 [4, 128]
000000 69 3e 42 bd 64 aa 5d bd 40 86 c7 3a 4a e2 2a bd
       -0.0474228 -0.054117575 0.0015222505 -0.041719712
000010 ce d8 26 bd 55 3e 82 3d 69 82 2c bd 48 43 16 3c
       -0.040734105 0.06359545 -0.042116556 0.009171315
000020 08 ad 13 bc 1a 41 1b 3d d0 ee f9 bb 80 de 87 3c
       -0.009013422 0.037903883 -0.0076273456 0.016585588
000030 22 6b aa bd 6a 84 75 3d 2b b9 9e bd b4 ca c5 bc
       -0.08321215 0.059940733 -0.07750162 -0.024144508
000040 e0 55 08 bc f8 df af bd ef c5 98 3d f2 50 20 3d
       -0.008321255 -0.085876405 0.07459628 0.039139695
000050 3a 0c 8f bd d4 61 b3 bd 58 08 2f bc e4 c5 00 bd
       -0.06984754 -0.087588936 -0.010683142 -0.031438723
000060 56 21 5a 3d cc bd d5 3c 77 c8 9a 3d ac 63 9c bd
       0.053254448 0.026091479 0.07557767 -0.076361984
000070 e5 92 91 3d 2e 12 46 3d f8 c3 d5 3c a8 06 3f 3c
       0.07108096 0.04835718 0.026094422 0.011659302
000080 67 e8 a3 bd b0 39 9f 3b fa ed 72 bd 68 6a da 3c
       -0.080033116 0.004859172 -0.059308983 0.026662067
000090 0f ca 45 bd a6 b8 89 bd 26 21 6a 3d 3e 57 28 3d
       -0.0482884 -0.06724672 0.05716052 0.041098826
0000a0 67 aa ae 3d 7a 72 92 bd 7b 3b aa 3d e8 7c 0b 3c
       0.085285954 -0.07150741 0.08312126 0.008513667
0000b0 1e d2 58 3d 94 d7 37 bd 8f e4 91 3d 68 eb 3a bc
       0.05293476 -0.044883326 0.07123672 -0.011408664
0000c0 97 16 85 3d 52 df 2e 3d 53 41 89 bd 6a 23 9b bd
       0.06498449 0.042693444 -0.06701913 -0.07575114
0000d0 10 13 dd bb a1 13 90 3d f0 f7 8b bb 5e b9 44 3d
       -0.006746657 0.07034994 -0.0042715 0.048028342
0000e0 88 e5 f8 3c 70 4f 76 bc 7c bc a8 3c 28 a5 35 bc
       0.030382887 -0.015033588 0.020597689 -0.01108674
0000f0 e5 02 9d 3d 19 83 aa bd a4 ad 8c bd 82 c9 9e bd
       0.07666568 -0.08325786 -0.06869057 -0.07753278
000100 80 a1 1e bb ae e8 1c bd ca a6 1c 3d 67 4e 93 3d
       -0.0024205148 -0.03830784 0.038245 0.071926884
000110 c6 fe 86 bd a7 11 59 bd 7f 4f 4e bd d1 72 83 3d
       -0.06591563 -0.05299535 -0.050368782 0.06418384
000120 b6 4d 01 3d 5f 78 84 3d 08 38 b7 3c ef 76 40 bd
       0.03156825 0.064682715 0.022365585 -0.046988424
000130 ec a3 a8 bd 01 e6 9a 3d cd aa 61 bd 48 cd a2 bd
       -0.082343906 0.07563401 -0.05509453 -0.079493105
000140 4a c5 19 3d 50 eb aa 3b 54 8a ce 3c b4 e8 9b bc
       0.037541665 0.0052160397 0.025212444 -0.01903186
000150 e4 3b d2 3c 3c b1 a0 bc 96 da 25 3d 86 e8 08 3d
       0.025663324 -0.019615762 0.040491663 0.033424877
000160 6e 35 9c bd b0 4b 87 3c c0 91 37 bc b0 08 17 3c
       -0.076273784 0.016515583 -0.011204183 0.00921838
000170 60 b6 c1 3c b0 d4 c5 bc 54 eb df 3c fd 5c b4 3d
       0.023646533 -0.024149269 0.027333893 0.088067986
000180 f4 f5 cb 3c c4 d7 c0 bc 92 79 86 bd ad 9a 92 3d
       0.024897553 -0.023540385 -0.065661564 0.07158408
000190 0a 0f 6f bd 8f 15 08 bd 28 05 34 bc 4e d9 4e 3d
       -0.05836395 -0.033223685 -0.0109875575 0.050500207
0001a0 ce 95 14 3d 80 d2 32 bb 59 0b 82 bd 18 e1 63 bd
       0.036275677 -0.0027286112 -0.06349821 -0.055634588
0001b0 c0 e5 99 ba fe d7 9e bd 0d a8 a5 3d 8c 55 c1 bc
       -0.0011741444 -0.07756041 0.08088694 -0.023600362
0001c0 f0 3d a9 3c bf 2f 99 3d 6f d5 07 bd 58 36 a6 bd
       0.020659417 0.0747981 -0.03316253 -0.08115834
0001d0 40 63 bb bb 65 aa 99 3d eb 9a 18 bd 0a 7f 3a 3d
       -0.0057186186 0.07503203 -0.037257116 0.04553131
0001e0 0a 7b 32 bd 00 15 78 3c 5b 76 97 3d 73 a9 b2 bd
       -0.04357437 0.015141726 0.073956214 -0.08723726
0001f0 68 d0 42 bc 40 a0 79 bb 35 0a 88 bd c8 83 57 3c
       -0.011890508 -0.0038089901 -0.06642572 0.013153978
000200 b0 8a ce bb 0b 0f a3 3d e9 0b ac 3d 48 b3 8f bd
       -0.006303154 0.079618536 0.08400709 -0.07016617
000210 f9 19 03 bd 70 cf 72 bd 64 a4 cb bc f3 ef 1c bd
       -0.03200719 -0.05927986 -0.024858661 -0.03831477
000220 e0 63 7a 3b a1 97 9a bd 1b cd 80 3d 42 a3 21 3d
       0.0038206503 -0.07548452 0.06289121 0.039462335
000230 80 e2 ac 3a c0 45 dc bb 10 09 a7 3c 98 27 ad bc
       0.0013190061 -0.006722182 0.020390064 -0.021137044
000240 48 bc a5 bc c5 79 9e bd 80 0c 79 bb 2e b3 60 bd
       -0.020231381 -0.077380694 -0.0038001835 -0.05485838
000250 d6 b0 51 3d cf e1 94 3d 64 67 c7 3c de 11 65 bd
       0.051194035 0.07269632 0.024341293 -0.055925243
000260 e4 bd 92 bd d4 b8 bf bc 81 f7 a8 bd 6a 01 31 bd
       -0.07165125 -0.023403563 -0.082503326 -0.04321424
000270 38 f1 1d 3c e1 f5 97 3d 6a c1 47 3d 91 e9 3d bd
       0.009640031 0.074199446 0.04876844 -0.046365324
000280 de 77 0d 3d 89 25 52 bd 29 a5 10 bd 0f 27 06 bd
       0.034538142 -0.051305328 -0.03531376 -0.032752093
000290 44 39 13 3d ea a8 9c bd 47 7d a6 3d 98 ad 59 bd
       0.035943285 -0.07649405 0.081293635 -0.053144068
0002a0 ec ea d9 bc 70 55 77 3c 96 8e 8b bd 70 e8 c2 3b
       -0.026601277 0.0150960535 -0.068143055 0.005948119
0002b0 00 96 63 ba 0d 04 96 bd 70 13 a6 bb 3e 76 8a bd
       -0.00086817145 -0.073249914 -0.005068235 -0.06760834
0002c0 44 a9 c6 bc bf d9 7a bd b8 89 63 bc 0f 05 81 3d
       -0.024250634 -0.061242815 -0.013887815 0.06299793
0002d0 40 0c 89 3b de b3 90 bd a0 32 c6 bc 3a 5a 99 bd
       0.0041823685 -0.07065557 -0.024194062 -0.074879125
0002e0 ec 54 af 3c 53 8e 8c 3d 0b 1f 2b bd ca 40 b4 bd
       0.021402799 0.06863084 -0.04177765 -0.0880142
0002f0 9d 13 92 3d 8b 74 41 bd dc d5 23 bd c0 06 d7 bb
       0.07132647 -0.047230285 -0.039998874 -0.006562084
000300 a0 eb 04 3b 60 aa 07 3b 36 fe 0e bd 46 e6 2a 3d
       0.0020282045 0.0020700917 -0.034910403 0.041723512
000310 16 7b 49 bd 14 20 ab bc 5a 34 49 3d 1d d1 48 bd
       -0.04918965 -0.02088932 0.049122192 -0.04902755
000320 3f 44 8a 3d 6f b9 64 bd e0 39 e2 bb 94 91 93 3c
       0.06751298 -0.055840906 -0.006903872 0.018013753
000330 a2 fc 7a 3d e8 07 d8 bc fe 85 e4 bc c0 5c 89 bb
       0.061276086 -0.026370957 -0.027895924 -0.004191965
000340 55 a8 89 3d 50 fd 88 3b 70 27 a8 bd 9e 0a 1e 3d
       0.0672156 0.004180588 -0.08210647 0.038584344
000350 e7 05 a3 3d c8 85 9c 3c 78 8c 97 3c d2 62 2b 3d
       0.0796011 0.01910676 0.018499598 0.04184229
000360 0f f4 af bd 65 06 91 3d 64 4a e2 3c 81 1c 85 3d
       -0.08591472 0.07081298 0.027623363 0.06499577
000370 68 83 7c 3c 2b 1b 94 3d 0d 47 a4 3d 21 09 a6 3d
       0.015412189 0.072317444 0.08021364 0.0810721
000380 51 c7 3b bd c6 87 29 bd f3 3e 84 3d 53 6a 96 3d
       -0.04584438 -0.04138925 0.06457319 0.073444985
000390 60 b8 35 3b d2 83 90 bd 7a 6c 40 3d d0 23 cb 3c
       0.0027728304 -0.07056393 0.04697845 0.02479735
0003a0 f0 61 b6 3b e4 b4 d7 3c f3 7f 27 bd 92 55 61 3d
       0.0055658743 0.026331373 -0.040893506 0.055013247
0003b0 20 a5 9d 3c b3 76 a1 bd 8e 59 12 bd 8f dd ae bd
       0.019243777 -0.07883968 -0.035729937 -0.08538353
0003c0 03 b6 97 3d 8c 7a 95 bc ec 3b 66 bd 76 5f 30 3d
       0.07407763 -0.018246911 -0.05620949 0.04305979
0003d0 6e 24 30 3d 7b 60 23 bd cb 64 1e bd c2 c7 5c 3d
       0.043003492 -0.039886933 -0.038670342 0.05390144
0003e0 af f1 a0 3d e0 97 02 bc 1d 3a 55 bd f3 b5 3f bd
       0.078585975 -0.00797078 -0.052057374 -0.04680438
0003f0 ae d9 6c 3d 10 fa d4 bc 00 54 d5 3a 69 64 b0 3d
       0.057824783 -0.025998145 0.0016275644 0.08612902

output_head.bias f4 [4]
000000 86 3f 21 bd 89 3c 81 3d ba 38 37 3d 9e fc de bc
       -0.03936722 0.06310374 0.044731833 -0.027220067

z_head.weight f4 [128, 128]
000000 39 1e 8d bd 00 09 89 3a 25 a7 a6 bd 0d f2 39 bd
       -0.0689053 0.0010454953 -0.08137349 -0.045396853
000010 3a f9 69 3d 50 5b 91 3c 20 ab 6a bb 6d 06 99 3d
       0.057122447 0.017743737 -0.0035807565 0.07471929
000020 58 86 00 3d 14 d7 40 bd fb ab 90 3d 68 55 7b bc
       0.03137812 -0.047080114 0.07064053 -0.015340187
000030 10 3e d5 bb a0 e3 93 bb 40 f5 99 3b bc cf 07 3d
       -0.0065076426 -0.004513219 0.0046984255 0.033157095
000040 ae 1f 65 3d 70 6a 2e 3c 85 4a 96 3d af 7c 91 bd
       0.055938415 0.010645494 0.07338432 -0.0710386
000050 dc 6d ab bd 8e 99 91 bd fc 74 83 3c 28 48 85 3c
       -0.083705634 -0.07109366 0.016046993 0.016269758
000060 4d 3b af 3d 1e c9 59 3d 52 99 9e bd bc 94 88 bc
       0.085562326 0.053170316 -0.07744087 -0.016672485
000070 1c fd 88 3c 80 26 64 3a 58 15 57 bd 7e 73 82 bd
       0.016722254 0.0008703247 -0.05251059 -0.06369685
000080 65 c9 8a 3d 44 cb f0 3c 88 ec 9e 3c 12 22 2b bd
       0.06776694 0.0293938 0.019399896 -0.04178054
000090 08 46 10 bc 75 ce 93 3d f0 a4 06 bd 2c f6 9d 3c
       -0.008805759 0.07217113 -0.03287214 0.019282423
0000a0 49 57 8c 3d 40 19 f0 bb 38 5e ab bd e4 6d 96 3c
       0.06852586 -0.007327229 -0.0836758 0.018362947
0000b0 8e b7 2e 3d d4 cc b7 bc fa 0a 5c bd db 18 b1 3d
       0.04265552 -0.022436537 -0.053721406 0.08647319
0000c0 20 5b 67 3c 8e c7 6c 3d 38 28 ba 3c a5 8d ac 3d
       0.014120847 0.057807498 0.022724256 0.08425454
0000d0 82 e2 32 3d a0 8a a1 bc 89 2b 9a bd 13 40 a7 3d
       0.043673046 -0.019719422 -0.07527835 0.08166518
0000e0 32 6b 79 3d d2 71 87 bd d4 72 c8 3c 57 ac b0 bd
       0.060893245 -0.066135064 0.024468817 -0.08626621
0000f0 38 58 45 bc 60 67 5c 3b 0f f0 a5 bd bb 55 aa 3d
       -0.012044959 0.0033630952 -0.08102428 0.08317133
000100 3d cd 3f bd 60 74 60 bc 28 9a b3 bc 96 67 5c 3d
       -0.04682659 -0.013699621 -0.021924093 0.053809725
000110 2c e0 ae bd e8 fb d2 bc f0 04 bb bc bf 06 93 bd
       -0.08538851 -0.025754884 -0.022829503 -0.07179021
000120 88 0f e5 3c 9b 0e 33 bd ed 1c 67 bd fe 72 90 bd
       0.027961507 -0.0437151 -0.05642407 -0.07053183
000130 60 4f 4a 3c 78 0e 2c bc 90 95 75 3c 00 68 e9 3b
       0.012348026 -0.0105014965 0.014989272 0.0071229935
000140 a0 6f 95 bc 22 d1 ef bc 70 8a 11 3d 4c f1 ed 3c
       -0.018241704 -0.029274527 0.035532415 0.029045723
000150 38 76 7a bc 06 d9 ac bd d2 22 0a 3d 9c 57 05 3d
       -0.015286975 -0.084398314 0.033724613 0.032554254
000160 b5 e4 ac bd ba 1f 47 3d 8d 68 a5 3d ac 1f bb bc
       -0.0844206 0.04861424 0.08076582 -0.02284225
000170 a4 41 e0 3c 1e f7 0c bd 18 2b f4 3c f7 86 9d 3d
       0.02737505 -0.034415357 0.029805705 0.07691758
000180 5e 63 70 3d 88 8f 27 bc 4e f9 2f 3d 97 20 2b bd
       0.058688514 -0.010227092 0.042962365 -0.041779127
000190 96 16 6f bd 13 02 7f bd 72 9d 57 3d 90 36 a8 3c
       -0.05837115 -0.062257838 0.052640386 0.02053383
0001a0 b1 ed 41 bd c3 bc a6 3d 82 f6 3d 3d 48 1e 3a bc
       -0.04734582 0.08141472 0.046377666 -0.011359759
0001b0 b3 87 94 3d 77 50 0f bd b8 ce c1 bc 40 56 0f 3c
       0.07252445 -0.034988847 -0.023658141 0.008748591
0001c0 2d 40 77 bd a8 a1 0a bc 74 8a 77 bd bb e4 58 bd
       -0.060363937 -0.008461393 -0.060434774 -0.05295251
0001d0 c8 83 cf 3c d2 d4 1c 3d 00 21 30 bb fa 90 8d bd
       0.025331393 0.0382889 -0.0026875138 -0.06912418
0001e0 60 44 3a bc 20 9f 3f bc d4 6c 02 3d 4c 57 9e bc
       -0.011368841 -0.011695653 0.031842068 -0.019328736
0001f0 60 9e 89 bc a0 a0 f5 bb f9 55 91 3d de 5b e5 bc
       -0.016799152 -0.0074959546 0.07096476 -0.027997907
000200 9f 60 4e bd db 66 9c 3d 99 88 ac 3d 5a 1f 1d 3d
       -0.050385114 0.076368056 0.084244914 0.038359977
000210 38 2e 4e 3c 40 10 b7 ba ed 12 8c 3d 90 27 d2 3c
       0.012584262 -0.0013966635 0.06839547 0.02565363
000220 76 5b 66 3d be 28 3a 3d 56 96 ff bc 54 3e f9 3c
       0.056239568 0.04544901 -0.031199615 0.030425228
000230 c0 05 0c bc d6 fa 31 3d fe fe 13 bd 70 34 ce bc
       -0.008546293 0.043452106 -0.03613185 -0.025171489
000240 a1 24 9e bd 16 87 0b 3d d8 bb 18 bd 44 6b 6d bd
       -0.0772183 0.034064375 -0.037288517 -0.057963625
000250 12 e1 22 bd 2b 25 a5 bd 9f a9 b4 3d 85 36 87 3d
       -0.039765425 -0.0806373 0.08821415 0.06602196
000260 e0 ee 62 3c 0a 29 24 3d b9 a8 33 bd 93 83 51 bd
       0.013850898 0.0400782 -0.04386208 -0.05115087
000270 a0 3e 4e bd 80 e5 01 3c 72 af 24 3d 00 78 73 bc
       -0.050352693 0.007928252 0.04020638 -0.014860153
000280 a9 fb 9e 3d 26 7a 43 3d b8 8e 0e bc bb 3a 9e 3d
       0.07762844 0.04772391 -0.008701019 0.07726046
000290 dd 8a 97 3d 98 5a ec 3c 08 61 3a bc 08 0f 36 3c
       0.07399533 0.028851792 -0.011375673 0.011111982
0002a0 12 c6 2b 3d 1f 65 a5 bd 75 c8 b4 bd 6c f2 d4 3c
       0.04193694 -0.08075928 -0.08827297 0.025994502
0002b0 40 73 67 bc f0 ab 52 bd 0a a0 45 3d 80 c2 14 3a
       -0.014126599 -0.051433504 0.04824833 0.0005674735
0002c0 f1 db 8e 3d e2 6d 57 3d b4 93 db 3c ea 13 49 bd
       0.06975544 0.052595027 0.026803829 -0.049091257
0002d0 95 28 9f 3d fa b1 7f 3d 99 de 9f 3d a0 60 17 bb
       0.07771412 0.06242559 0.07806129 -0.0023098364
0002e0 0b bc 98 3d c3 a1 ac 3d 1b b0 aa bd 04 bb 82 bc
       0.07457741 0.08429291 -0.08334371 -0.015958317
0002f0 d0 1c 91 3b da 0c 7d 3d 2f e1 54 bd 34 be 11 3d
       0.0044284835 0.061779834 -0.051972564 0.035581782
000300 41 63 9f bd b0 56 27 bc 9a c3 33 bd 20 3a 58 bb
       -0.07782603 -0.010213539 -0.043887712 -0.003299363
000310 19 b5 a3 bd 26 4e 7e bd 7a 3a 69 3d a4 ca 46 bd
       -0.07993526 -0.062086247 0.056940533 -0.048533097
000320 06 bc 11 bd 33 16 90 3d d8 00 8a bd aa 7e 4e 3d
       -0.035579704 0.07035484 -0.06738442 0.050413765
000330 19 91 80 bd ee 06 99 bd 00 ea 6c ba f5 a4 a8 3d
       -0.06277675 -0.07472025 -0.0009037554 0.08234588
000340 19 69 83 3d a0 af e8 bb 06 6f 53 bd 50 a2 8c bb
       0.0641653 -0.0071010143 -0.051619552 -0.00429181
000350 ba 6b 46 3d 30 aa b1 bb ad 07 9e 3d cf 6a 9a 3d
       0.04844258 -0.0054218993 0.07716308 0.07539903
000360 70 f0 ba 3c 5a 9d 56 3d 54 0c e7 3c 9e 23 4e 3d
       0.022819728 0.052396156 0.02820412 0.050326936
000370 db 70 5c bd 20 6c 1f 3c 50 4a 16 3c 2e 2b 0c 3d
       -0.053818565 0.009730369 0.009172991 0.034220867
000380 08 3d 72 3c 6f bc 02 bd c8 71 24 bc f0 76 cc bb
       0.014785059 -0.031917986 -0.010036893 -0.0062397644
000390 6f a3 8b 3d e0 4d 9b 3c 40 7f 90 3a 40 d4 4b 3b
       0.06818282 0.018958032 0.0011024252 0.0031101853
0003a0 38 e9 2d 3c b4 fd dd bc 80 f1 7b ba da 27 13 bd
       0.010614686 -0.027098514 -0.00096108764 -0.035926677
0003b0 bc e1 7a bd 02 dd 61 3d f5 9d 8b 3d a9 72 96 3d
       -0.061250433 0.05514241 0.06817237 0.073460884
0003c0 6a 87 7f 3d 09 4c 0f bd 94 ac 33 bd 56 f8 76 bd
       0.062385 -0.034984622 -0.043865755 -0.060295425
0003d0 76 bc 39 3d 34 1f df 3c d6 32 52 3d 7e 7c 8c bd
       0.045345746 0.027236558 0.051318012 -0.068596825
0003e0 3e cc 5c 3d 68 56 6a bd 28 a9 25 bc e5 69 9c bd
       0.053905718 -0.05721131 -0.010111131 -0.07637385
0003f0 28 e3 66 bc 0a d2 33 3d a6 54 6d 3d e4 fc cf bc
       -0.014092244 0.04390148 0.057942055 -0.025389142

z_head.bias f4 [128]
000000 20 66 4f bb c6 bb 5e 3d 20 a3 15 3b cd f8 05 bd
       -0.0031646565 0.054378293 0.0022832826 -0.032707978
000010 05 75 1b bd 84 d5 95 bd a0 e8 68 bb 6f 99 ac bd
       -0.037953395 -0.073161155 -0.0035539046 -0.08427703
000020 20 25 a5 bb 00 8e 56 ba 92 4c 5e 3d 2a 0a 29 3d
       -0.005039826 -0.0008184612 0.054272242 0.04126946
000030 39 19 8f bd fc 4d 85 3c 0c c8 ad 3c c6 d8 6c 3d
       -0.06987233 0.016272537 0.021213554 0.05782392
000040 eb 6b 05 bd 8c 4d c7 3c 98 b9 65 3c ab 5d af bd
       -0.03257362 0.02432897 0.0140213 -0.085627876
000050 39 ac 46 bd 0a ad 41 3d de 8d 43 3d 03 29 3b bd
       -0.048504088 0.047284164 0.047742717 -0.04569341
000060 76 79 5b 3d 12 11 4d 3d d0 8c 03 bd 2d 27 a8 bd
       0.05358263 0.050065108 -0.03211671 -0.08210597
000070 76 41 59 3d 98 58 56 3c 18 66 b0 3c c0 59 c4 bb
       0.053040944 0.013082646 0.021533057 -0.0059921443
000080 00 92 03 bb 34 7d 13 3d bb 7e 98 3d 06 2e 67 3d
       -0.0020076036 0.036008075 0.07446047 0.056440376
000090 52 2f 48 3d 4b ce aa 3d e0 66 6f bb e9 c7 b2 bd
       0.048873253 0.083401285 -0.0036529824 -0.08729536
0000a0 a0 08 af 3b a9 82 97 3d e0 38 1b 3b 1a 5a 53 3d
       0.0053416044 0.07397968 0.0023685023 0.0515996
0000b0 2d d0 0f bd dd 53 0a bd d5 0d 84 3d 75 0a ab 3d
       -0.03511064 -0.033771385 0.06447951 0.08351604
0000c0 98 97 38 bd 07 10 84 bd a9 44 9a bd f7 40 9f bd
       -0.045066446 -0.064483695 -0.07532627 -0.07776063
0000d0 14 79 b2 bd c7 40 8e bd 52 dd 1b 3d 2b 93 91 3d
       -0.087145 -0.06945949 0.038052864 0.07108148
0000e0 00 d4 79 bc 5b a8 ad 3d d0 39 e5 3c 30 71 49 bd
       -0.015248299 0.08479377 0.027981669 -0.04918021
0000f0 f0 1c f2 bc 38 54 b9 3c f8 c7 57 bc 3b 21 92 bd
       -0.029554814 0.022623166 -0.013170235 -0.071352445
000100 01 51 b4 3d a0 28 1b 3b 12 99 82 bd a2 20 5b 3d
       0.08804513 0.0023675337 -0.06376852 0.053497918
000110 ac f8 ad bc 2f 56 a6 3d 0d dd 11 bd 88 4d 80 3c
       -0.02123674 0.08121907 -0.0356112 0.01566197
000120 10 bb 06 3d 56 61 70 bd 77 d2 41 bd 88 e2 f6 3c
       0.03289324 -0.058686577 -0.047319856 0.030137315
000130 ba 89 a7 bd da 33 ea bc 2b e8 9e 3d 60 22 52 3b
       -0.08180566 -0.028589178 0.07759126 0.0032063946
000140 d0 04 b7 3c bc 0b 41 bd 0c ff 8f bd ff ad 8d 3d
       0.022341162 -0.04713033 -0.07031068 0.06917953
000150 ac 04 91 3c 02 2e f4 bc 82 90 35 3d 30 94 ac 3c
       0.017702423 -0.029807094 0.044327267 0.021066755
000160 85 60 4c bd 44 93 6e bd d0 58 00 3d b6 08 6e 3d
       -0.049896736 -0.058245912 0.0313347 0.058113776
000170 bb 8e a2 3d 88 f9 a3 bc 2e 3f 42 3d 40 af 4c 3c
       0.0793738 -0.020016447 0.047423534 0.012492955
000180 76 d0 30 3d 30 c5 87 3c 30 9b b9 bb d3 1f a5 3d
       0.043167554 0.016573519 -0.0056642517 0.080627106
000190 0a 5f 48 bd 50 a4 c3 bb 20 b8 0a bb 00 37 d5 bb
       -0.04891876 -0.0059705153 -0.0021166876 -0.0065068007
0001a0 38 4a 4b 3c 82 63 64 3d 1c 84 8e bd 72 14 7c 3d
       0.012407832 0.05575896 -0.069587916 0.061542936
0001b0 93 4f 2a bd 14 00 84 3c b2 0d 17 3d 20 69 f8 bb
       -0.041579794 0.016113319 0.036878295 -0.0075808913
0001c0 2d 4f a9 3d 6c ca ba bc a4 77 c4 bc 7c 6e de 3c
       0.08267055 -0.0228016 -0.02398283 0.027152292
0001d0 52 c1 5d 3d 8d 3f 83 3d b0 60 83 3c 70 a9 f0 3c
       0.054139443 0.06408606 0.016037315 0.02937767
0001e0 70 30 f8 bb d8 a0 b0 bd f0 05 f6 bc bc c5 bb 3c
       -0.0075741336 -0.086244285 -0.030032128 0.022921436
0001f0 cc 75 ca bc 98 66 ef 3c 00 b7 e4 b9 c6 5b 52 3d
       -0.024714373 0.029223725 -0.00043623894 0.051357053
